python/model_hybrid_quantized.tflite (tflite, 279628 bytes, 16 tensors)

sequential_3/conv2d_4/BiasAdd/ReadVariableOp f2 [32]
-0.02858 -0.02809 0.00685 -0.02155 0.05994 -0.004498 -0.0016 0.007484
-0.002378 0.01735 -0.0431 -0.00596 -0.004032 -0.00687 0.002815 -0.02689
0.00865 -0.0247 -0.005333 0.03096 0.0001954 0.02115 -0.00568 -0.0164
-0.02136 -0.01077 -0.00453 0.00747 -0.0285 -0.0217 -0.02242 -0.01061
00000000: 51a7 31a7 041f 84a5 ac2b 9b9c 8e96 aa1f
00000010: df98 7124 84a9 1a9e 219c 099f c419 e2a6
00000020: 6e20 53a6 769d ed27 670a 6a25 d19d 33a4
00000030: 78a5 84a1 a49c a61f 4ca7 8ea5 bda5 6fa1

sequential_3/conv2d_5/BiasAdd/ReadVariableOp f2 [64]
-0.11707 -0.0548 -0.03082 0.0305 0.02167 -0.02223 -0.102 -0.04547
-0.00946 -0.033 0.0456 -0.0663 -0.0845 -0.06573 -0.02739 -0.02914
-0.0368 -0.02002 0.01973 -0.0523 -0.0469 -0.01114 0.02617 -0.01276
-0.007633 -0.04797 -0.0091 -0.07996 -0.045 -0.06775 -0.08 0.05215
-0.0392 -0.0688 -0.055 -0.003859 0.01819 -0.0791 -0.03452 -0.03702
0.01042 -0.01251 -0.02982 -0.02893 0.0389 -0.06305 0.0467 0.02736
0.006626 -0.08295 0.05072 -0.05746 -0.0595 -0.0262 0.0995 -0.0425
0.00805 -0.01259 -0.0421 -0.008995 -0.02597 -0.0213 -0.015465 -0.05084
00000000: 7eaf 04ab e4a7 cf27 8c25 b1a5 87ae d2a9
00000010: d8a0 39a8 d629 3eac 68ad 35ac 03a7 76a7
00000020: b6a8 20a5 0d25 b2aa 01aa b4a1 b326 88a2
00000030: d19f 24aa a9a0 1ead c3a9 56ac 1fad ad2a
00000040: 05a9 67ac 0aab e79b a824 10ad 6ba8 bda8
00000050: 5621 68a2 a2a7 68a7 fb28 09ac fa29 0127
00000060: c91e 4fad 7e2a 5bab 9eab b5a6 5e2e 71a9
00000070: 1f20 72a2 64a9 9ba0 a6a6 74a5 eba3 82aa

sequential_3/conv2d_6/BiasAdd/ReadVariableOp f2 [128]
-0.1671 -0.0561 -0.10724 -0.08716 -0.003445 -0.11414 -0.0825 -0.006443
-0.03088 -0.0914 -0.04654 -0.09955 -0.09674 -0.0799 -0.05453 -0.1823
-0.1808 -0.08984 -0.1803 -0.1582 -0.02727 -0.11896 -0.1929 -0.1093
-0.02347 -0.004772 0.0008025 -0.03702 -0.1432 -0.063 -0.03897 -0.02951
-0.1523 -0.02013 -0.01185 -0.0801 0.00372 -0.1699 -0.07324 -0.02573
-0.1622 -0.00931 -0.1261 -0.08545 -0.05927 -0.044 0.05887 -0.02809
-0.06915 -0.1194 -0.1304 -0.116 -0.02428 0.0003397 0.0654 -0.02614
0.05994 -0.1743 -0.0279 -0.1229 0.05133 -0.105 -0.1335 -0.0751
-0.04852 -0.03815 0.01127 -0.0368 -0.0901 -0.1769 -0.05057 0.068
-0.1217 -0.09045 -0.12384 -0.10254 -0.1144 -0.06836 -0.03983 -0.09686
-0.0835 -0.1142 -0.04358 -0.1779 -0.1127 0.08124 0.00902 0.000578
-0.02983 -0.02321 0.03625 -0.0715 -0.03632 -0.1371 -0.09625 -0.03378
-0.04962 -0.1586 -0.1109 -0.03497 -0.0685 0.02522 -0.08594 -0.0634
-0.10394 -0.0936 -0.0452 0.0766 -0.0995 -0.12213 -0.0769 -0.11346
-0.127 0.01968 0.002445 0.0972 -0.0924 -0.0443 -0.02783 -3.44e-05
0.008446 -0.0434 -0.0474 -0.1635 -0.1304 -0.01226 -0.01481 -0.04
00000000: 59b1 2eab ddae 94ad 0e9b 4eaf 48ad 999e
00000010: e8a7 d9ad f5a9 5fae 31ae 1dad fbaa d5b1
00000020: c9b1 c0ad c5b1 10b1 fba6 9daf 2cb2 ffae
00000030: 02a6 e39c 9312 bda8 95b0 08ac fda8 8ea7
00000040: e0b0 27a5 11a2 20ad 9e1b 70b1 b0ac 96a6
00000050: 31b1 c4a0 09b0 78ad 96ab a2a9 892b 31a7
00000060: 6dac a4af 2cb0 6daf 37a6 910d 302c b1a6
00000070: ac2b 94b1 24a7 deaf 922a b8ae 46b0 ceac
00000080: 36aa e2a8 c521 b6a8 c4ad a9b1 79aa 5a2c
00000090: caaf caad edaf 90ae 52af 60ac 19a9 33ae
000000a0: 58ad 4faf 94a9 b1b1 36af 332d 9e20 bc10
000000b0: a3a7 f1a5 a428 93ac a6a8 63b0 29ae 53a8
000000c0: 5aaa 13b1 19af 7aa8 62ac 7526 80ad 0fac
000000d0: a7ae fead c9a9 e72c 5eae d1af ecac 43af
000000e0: 10b0 0a25 0219 392e eaad aca9 20a7 4182
000000f0: 5320 8ea9 11aa 3bb1 2cb0 47a2 95a3 1fa9

sequential_3/dense_9/MatMul;sequential_3/dense_9/BiasAdd f2 [36]
6.99 5.902 5.11 -3.229 1.1875 4.06 0.682 2.451
-3.736 1.091 3.303 -2.537 6.477 4.207 -0.8784 0.6113
1.585 1.753 5.832 2.133 1.809 2.43 0.2646 3.846
6.465 1.913 4.617 0.9087 -2.465 4.332 -1.475 0.08704
-4.285 0.229 2.832 -0.696
00000000: fd46 e745 1c45 75c2 c03c 0f44 7539 e740
00000010: 79c3 5d3c 9b42 13c1 7a46 3544 07bb e438
00000020: 573e 033f d545 4440 3c3f dc40 3c34 b143
00000030: 7746 a73f 9e44 453b eec0 5544 e6bd 922d
00000040: 49c4 5433 aa41 91b9

sequential_3/batch_normalization_12/batchnorm/mul_1;sequential_3/batch_normalization_12/batchnorm/add_1;sequential_3/dense_9/MatMul;sequential_3/dense_9/BiasAdd f2 [36, 256]
-0.0 0.0 -0.0 -0.793 -0.0 -0.8804 -0.0 -0.0
-0.5674 0.0 -1.399 -1.334 -0.0 -0.0 -1.606 0.0
-0.0 -0.0 -0.0 -0.8477 0.0 0.0 0.0 -0.0
-0.0 0.0 -0.0 0.0 0.0 -0.0 0.0 0.0
0.7593 0.0 0.0 0.0 0.0 0.0 0.0 -0.8286
0.607 -1.451 -0.0 -0.0 -0.0 -0.0 -0.0 -1.464
-0.0 -0.894 -0.854 0.0 0.0 -0.8228 -0.0 -0.8486
-0.0 -0.0 -0.0 -0.0 -0.0 0.0 -1.267 0.0
-0.0 0.0 0.0 -0.0 -0.8276 0.0 -0.0 -0.0
0.0 0.538 0.0 -0.0 -1.277 -0.0 -0.914 0.0
-0.2688 -0.0 0.0 -0.0 0.0 -0.0 -0.0 -0.8286
-0.676 0.7456 -0.0 0.0 0.8604 -0.7173 -0.0 -0.0
0.0 -0.538 -0.0 0.0 0.0 0.0 -0.0 0.0
-0.7886 -0.0 0.0 0.0 -0.0 0.0 0.0 -0.9033
-0.0 0.0 0.0 -1.004 -0.0 0.0 -0.0 0.0
-0.9595 -0.0 -0.0 -0.0 -0.532 -0.0 0.408 -0.0
-1.46 -0.0 0.0 -0.0 0.885 0.0 0.0 -0.6333
-0.9253 -0.0 0.0 -0.0 -0.0 -0.0 0.0 0.842
-0.0 0.0 -0.0 -0.0 -0.0 0.0 -0.0 -0.0
-0.765 0.0 -0.776 -0.4036 0.0 0.0 -1.076 -0.688
0.0 -0.96 0.0 0.0 -0.638 0.0 0.0 -0.0
5.477 -0.8335 -0.0 0.0 -0.0 -0.0 -0.0 -0.0
0.402 -0.0 0.0 0.0 0.0 -0.0 -1.34 -1.0625
-0.0 0.0 0.0 -0.0 -1.192 -0.675 -0.0 0.0
-0.0 -0.0 0.0 -0.9688 -1.449 -0.0 -0.312 0.8735
0.0 -0.913 0.0 -0.0 -0.0 0.0 -0.0 -0.3718
-1.564 0.0 0.0 0.0 -0.0 0.0 -0.0 -0.0
-0.0 0.0 0.0 0.0 -1.655 0.0 0.0 -2.145
0.7705 -0.0 -0.0 0.0 -0.0 0.0 0.0 -0.0
-0.0 -0.4678 -0.66 -0.644 0.0 -0.0 -0.0 0.0
0.0 0.0 -0.0 -0.0 0.2944 0.0 -0.0 -0.0
0.607 0.793 -0.0 -0.0 -0.0 -0.0 1.326 -2.701
00000000: 0080 0000 0080 58ba 0080 0bbb 0080 0080
00000010: 8ab8 0000 99bd 56bd 0080 0080 6dbe 0000
00000020: 0080 0080 0080 c8ba 0000 0000 0000 0080
00000030: 0080 0000 0080 0000 0000 0080 0000 0000
00000040: 133a 0000 0000 0000 0000 0000 0000 a1ba
00000050: db38 cebd 0080 0080 0080 0080 0080 dbbd
00000060: 0080 27bb d5ba 0000 0000 95ba 0080 caba
00000070: 0080 0080 0080 0080 0080 0000 11bd 0000
00000080: 0080 0000 0000 0080 9fba 0000 0080 0080
00000090: 0000 4e38 0000 0080 1cbd 0080 50bb 0000
000000a0: 4db4 0080 0000 0080 0000 0080 0080 a1ba
000000b0: 68b9 f739 0080 0000 e23a bdb9 0080 0080
000000c0: 0000 4eb8 0080 0000 0000 0000 0080 0000
000000d0: 4fba 0080 0000 0000 0080 0000 0000 3abb
000000e0: 0080 0000 0000 04bc 0080 0000 0080 0000
000000f0: adbb 0080 0080 0080 42b8 0080 8736 0080
00000100: d7bd 0080 0000 0080 143b 0000 0000 11b9
00000110: 67bb 0080 0000 0080 0080 0080 0000 bc3a
00000120: 0080 0000 0080 0080 0080 0000 0080 0080
00000130: 1fba 0000 35ba 75b6 0000 0000 4ebc 81b9
00000140: 0000 aebb 0000 0000 1bb9 0000 0000 0080
00000150: 7a45 abba 0080 0000 0080 0080 0080 0080
00000160: 6f36 0080 0000 0000 0000 0080 5cbd 40bc
00000170: 0080 0000 0000 0080 c5bc 66b9 0080 0000
00000180: 0080 0080 0000 c0bb ccbd 0080 feb4 fd3a
00000190: 0000 4ebb 0000 0080 0080 0000 0080 f3b5
000001a0: 42be 0000 0000 0000 0080 0000 0080 0080
000001b0: 0080 0000 0000 0000 9fbe 0000 0000 4ac0
000001c0: 2a3a 0080 0080 0000 0080 0000 0000 0080
000001d0: 0080 7cb7 48b9 27b9 0000 0080 0080 0000
000001e0: 0000 0000 0080 0080 b634 0000 0080 0080
000001f0: db38 583a 0080 0080 0080 0080 4e3d 67c1

sequential_3/conv2d_4/Conv2D f2 [32, 3, 3, 1]
0.0 0.0 0.0 0.0 0.0 0.0 -0.1937 0.0
0.11804 -0.151 0.0 0.0 0.09344 0.0 0.0 0.0
-0.1054 -0.10297 -0.0 -0.0903 -0.11334 -0.0 -0.0 -0.0
-0.0 -0.0 0.2052 0.0 0.0 0.0 0.0 -0.1554
0.0 0.0 0.1008 0.0 -0.0 0.1593 -0.1353 -0.0916
-0.0 -0.0 -0.0 0.1736 -0.1257 -0.0 -0.0 -0.1536
-0.0 0.0 0.0 0.0 0.119 0.0 -0.092 -0.11694
-0.12115 0.1354 0.1902 0.0 0.0 0.0 0.0 -0.1521
0.0 0.0 0.0 0.0 0.1534 0.0 0.0 0.0
0.1357 0.0 0.0 0.0 0.0 0.0 0.0 -0.17
-0.0 -0.1694 0.1009 0.0 0.0 0.0 0.0 0.0
-0.0917 0.1523 0.0 0.0 0.0 0.0 0.0 0.0
-0.1694 0.0 0.0 -0.0 -0.0 0.1562 -0.1676 -0.0
-0.0 -0.0 -0.0 -0.0 0.0 0.0 0.0 -0.1117
0.0 -0.1334 0.0 0.0 -0.1328 0.0 0.0 0.0
0.0 0.0 0.0 -0.1445 0.0 0.0 0.0 0.0
0.159 0.0 0.0 0.0 0.0 -0.1602 0.0 0.0
0.0 0.0 0.0 0.0 0.0 0.0 0.0 0.0
0.10974 0.0 0.0 0.0 0.0 0.0 0.0 -0.11084
0.0 0.0 0.0 0.0 0.0 -0.1321 0.0 0.0
-0.1708 0.10895 0.0 -0.1159 -0.0 0.1587 -0.0 -0.0
-0.1235 -0.0 -0.0 -0.0 -0.0 -0.0 -0.0 -0.0
-0.0 -0.0 -0.0 -0.0 -0.0 -0.0 -0.1335 -0.1381
0.11 -0.0 -0.0 -0.0 0.10126 0.0 0.0 0.1469
-0.1547 0.11145 -0.10803 0.0 0.0 0.0 0.0 0.0
0.0 0.0 0.0 0.0 0.1432 -0.1707 0.0 -0.1188
-0.09174 0.0 -0.1061 0.0 0.09625 0.0 0.0 -0.1405
-0.0899 0.12115 0.0 -0.1305 -0.132 0.0 0.0 0.0
0.0 0.0 0.0 0.0 0.0 0.0 -0.147 0.0
0.0 0.0 0.0 0.0 0.0 0.1151 0.1146 -0.1109
0.0 -0.0943 0.0 0.0 0.1421 0.0 0.0 0.0
-0.1068 -0.2009 0.0 0.0 -0.1404 0.0 0.0 0.0
00000000: 0000 0000 0000 0000 0000 0000 33b2 0000
00000010: 8e2f d5b0 0000 0000 fb2d 0000 0000 0000
00000020: bfae 97ae 0080 c7ad 41af 0080 0080 0080
00000030: 0080 0080 9132 0000 0000 0000 0000 f9b0
00000040: 0000 0000 742e 0000 0080 1931 54b0 ddad
00000050: 0080 0080 0080 8e31 06b0 0080 0080 eab0
00000060: 0080 0000 0000 0000 9e2f 0000 e3ad 7caf
00000070: c1af 5530 1632 0000 0000 0000 0000 deb0
00000080: 0000 0000 0000 0000 e930 0000 0000 0000
00000090: 5830 0000 0000 0000 0000 0000 0000 71b1
000000a0: 0080 6cb1 752e 0000 0000 0000 0000 0000
000000b0: dead e030 0000 0000 0000 0000 0000 0000
000000c0: 6cb1 0000 0000 0080 0080 0031 5db1 0080
000000d0: 0080 0080 0080 0080 0000 0000 0000 26af
000000e0: 0000 45b0 0000 0000 40b0 0000 0000 0000
000000f0: 0000 0000 0000 a0b0 0000 0000 0000 0000
00000100: 1731 0000 0000 0000 0000 20b1 0000 0000
00000110: 0000 0000 0000 0000 0000 0000 0000 0000
00000120: 062f 0000 0000 0000 0000 0000 0000 18af
00000130: 0000 0000 0000 0000 0000 3ab0 0000 0000
00000140: 77b1 f92e 0000 6baf 0080 1431 0080 0080
00000150: e7af 0080 0080 0080 0080 0080 0080 0080
00000160: 0080 0080 0080 0080 0080 0080 46b0 6bb0
00000170: 0a2f 0080 0080 0080 7b2e 0000 0000 b330
00000180: f3b0 222f eaae 0000 0000 0000 0000 0000
00000190: 0000 0000 0000 0000 9530 76b1 0000 9aaf
000001a0: dfad 0000 caae 0000 292e 0000 0000 7fb0
000001b0: c1ad c12f 0000 2db0 39b0 0000 0000 0000
000001c0: 0000 0000 0000 0000 0000 0000 b4b0 0000
000001d0: 0000 0000 0000 0000 0000 5e2f 562f 19af
000001e0: 0000 09ae 0000 0000 8c30 0000 0000 0000
000001f0: d6ae 6eb2 0000 0000 7eb0 0000 0000 0000

sequential_3/conv2d_5/Conv2D f2 [64, 3, 3, 32]
0.0 0.1289 0.1144 0.1221 -0.0 -0.0 -0.0 0.0
-0.0 0.0 0.0 -0.04608 0.0 0.0972 -0.1522 0.0
0.0 -0.0 0.06866 -0.0621 -0.0 0.0 -0.03983 -0.1021
0.0 -0.0 -0.0 -0.1592 -0.0 -0.0 0.1334 0.0
-0.07544 -0.0 -0.0854 -0.0 -0.0 0.084 -0.0 0.0
0.0 0.0 0.1415 -0.07294 0.0 0.1646 0.0 -0.10394
-0.0 -0.0 0.0 0.0 -0.0 0.1213 -0.0483 -0.1688
-0.1356 -0.07764 -0.0 -0.0667 -0.0 -0.0695 -0.0 0.0
-0.0818 -0.0 -0.0 -0.0 0.11163 0.0875 0.07635 0.0
0.0 0.0 0.0 0.0 0.0 0.1818 0.1344 0.0
0.0 -0.0 -0.1004 0.0 -0.08844 0.0 0.0 0.0
0.0 -0.0 0.0866 0.1437 -0.0 -0.0 0.1774 -0.1272
0.0 -0.0 0.104 -0.0 -0.0 0.0 0.1062 -0.06247
0.1195 0.0 0.0 0.0 0.0 -0.0 -0.08594 0.0
-0.1589 -0.0 0.0 0.0 0.0 0.0 0.0 -0.12274
-0.1844 -0.0 -0.0 -0.0633 -0.0 -0.0 0.0958 0.0
-0.1494 -0.0 0.0 0.06604 0.0 0.0 -0.0 0.0
0.0593 0.0 -0.00832 -0.0 0.0 -0.0 -0.12427 0.0
0.0 -0.0 -0.1069 0.05463 0.0 0.0 0.0 -0.1558
-0.1581 -0.0 0.0394 0.0 0.0793 -0.0 -0.0 0.0
0.0 0.1663 0.0 -0.0 0.0771 0.1256 0.0798 0.0
0.0 -0.1237 0.1399 0.0 0.0 -0.0 -0.0925 0.0
0.0 -0.03525 -0.0963 0.0 -0.05905 -0.1165 0.11053 -0.1705
0.0 0.12177 0.0 0.0 -0.0 -0.0 -0.0 0.0
-0.1562 -0.0 0.0 -0.0 -0.05194 0.0 -0.0744 0.0
0.0 0.0 -0.01378 0.045 0.0 -0.0 -0.2627 0.0
-0.11127 -0.0 0.0 0.0 0.0 0.0 0.0 0.0
0.0 0.1088 -0.0 -0.0 0.12115 -0.0 -0.0 -0.1209
0.0 -0.0 0.07733 0.0738 0.0969 0.0 0.08563 0.0
-0.12317 0.0 -0.0 0.0 -0.10004 0.1655 -0.0914 -0.0
0.0 -0.0 -0.1076 0.0 0.0 0.0 0.0 -0.1261
0.0 -0.06158 -0.0 -0.0 -0.0 -0.0 0.0821 -0.08545
00000000: 0000 2030 522f d02f 0080 0080 0080 0000
00000010: 0080 0000 0000 e6a9 0000 392e dfb0 0000
00000020: 0000 0080 652c f3ab 0080 0000 19a9 89ae
00000030: 0000 0080 0080 18b1 0080 0080 4530 0000
00000040: d4ac 0080 77ad 0080 0080 602d 0080 0000
00000050: 0000 0000 8730 abac 0000 4431 0000 a7ae
00000060: 0080 0080 0000 0000 0080 c32f 2faa 67b1
00000070: 57b0 f8ac 0080 45ac 0080 73ac 0080 0000
00000080: 3cad 0080 0080 0080 252f 9a2d e32c 0000
00000090: 0000 0000 0000 0000 0000 d131 4d30 0000
000000a0: 0000 0080 6dae 0000 a9ad 0000 0000 0000
000000b0: 0000 0080 8b2d 9930 0080 0080 ad31 12b0
000000c0: 0000 0080 a82e 0080 0080 0000 cc2e ffab
000000d0: a62f 0000 0000 0000 0000 0080 80ad 0000
000000e0: 16b1 0080 0000 0000 0000 0000 0000 dbaf
000000f0: e7b1 0080 0080 0dac 0080 0080 222e 0000
00000100: c8b0 0080 0000 3a2c 0000 0000 0080 0000
00000110: 972b 0000 43a0 0080 0000 0080 f4af 0000
00000120: 0000 0080 d7ae fe2a 0000 0000 0000 fcb0
00000130: 0fb1 0080 0b29 0000 132d 0080 0080 0000
00000140: 0000 5231 0000 0080 ef2c 0530 1b2d 0000
00000150: 0000 ebaf 7a30 0000 0000 0080 ecad 0000
00000160: 0000 83a8 2aae 0000 8fab 75af 132f 75b1
00000170: 0000 cb2f 0000 0000 0080 0080 0080 0000
00000180: 00b1 0080 0000 0080 a6aa 0000 c3ac 0000
00000190: 0000 0000 0ea3 c329 0000 0080 34b4 0000
000001a0: 1faf 0080 0000 0000 0000 0000 0000 0000
000001b0: 0000 f72e 0080 0080 c12f 0080 0080 bdaf
000001c0: 0000 0080 f32c b92c 342e 0000 7b2d 0000
000001d0: e2af 0000 0080 0000 67ae 4c31 d9ad 0080
000001e0: 0000 0080 e3ae 0000 0000 0000 0000 09b0
000001f0: 0000 e2ab 0080 0080 0080 0080 412d 78ad

sequential_3/conv2d_6/Conv2D f2 [128, 3, 3, 64]
-0.0 0.05502 -0.0 -0.0414 0.0 0.10016 0.0888 -0.028
0.04056 -0.0 -0.0 -0.0 -0.014206 -0.0 -0.1271 -0.0
0.08673 0.0 -0.0906 -0.0 -0.2583 -0.0724 -0.0 -0.0
-0.0946 -0.0 0.0 0.0 0.0 0.04135 -0.0 -0.0
0.0 -0.0818 0.0 0.0 0.07074 -0.1847 -0.0 0.0
0.0 0.0 -0.0 -0.0 -0.0 -0.03952 0.0 -0.0
0.0 0.0 0.0 -0.0994 -0.0 -0.07806 -0.0 0.0
-0.0 0.0 0.0 -0.0 0.0 -0.0 -0.0834 0.0
-0.0 0.02443 -0.0639 -0.07434 0.0 0.0 0.0 0.0
0.0 -0.09045 0.02443 -0.132 0.0 -0.0 -0.0754 0.0
0.0 0.0 -0.09235 0.0 -0.11456 0.0 -0.0 0.0
-0.0 -0.0 0.0 0.0 -0.0 0.0 -0.0 0.0
0.0 -0.0813 0.0 -0.0 -0.0 -0.0 0.0 -0.0
0.02568 -0.0 0.0 0.0 -0.0 0.0 0.0 -0.1387
-0.05453 0.0 0.0 -0.11554 -0.0551 -0.0 -0.0 -0.02716
-0.0 -0.0437 0.0 0.08 0.0 -0.0 -0.0 0.0
0.0 0.0 -0.0 -0.0 -0.0 -0.0 -0.0 -0.0
-0.0 -0.12274 0.0 -0.08514 0.0 -0.0 -0.08875 0.0
0.0 0.0 -0.0 -0.0 -0.1423 0.0 -0.0 0.0
-0.0 -0.0788 -0.04666 0.0 0.0 0.1141 -0.0 -0.0
0.0 -0.0 0.0 -0.1139 -0.0 -0.1143 -0.0 0.0
0.0 -0.0 0.0 0.0 -0.0 -0.0 0.0 -0.0
0.0 0.0 0.0 -0.1095 -0.0 0.07336 -0.0 0.0
-0.0 -0.0791 0.0699 0.0 -0.0 -0.0 -0.0 -0.0
-0.0 0.07263 -0.0 -0.0 0.0 0.0 0.0 0.0
0.0 0.0 -0.0 -0.07043 -0.08453 -0.0 -0.0 -0.0
-0.0 0.0459 -0.11316 -0.0 -0.1675 0.0 -0.0 -0.08746
0.0 -0.10315 -0.0712 0.0 0.0 0.0 -0.05676 0.0
0.0 -0.0 0.0 -0.06076 0.0 -0.1827 -0.0 -0.0
0.0 -0.0791 0.0 -0.0 -0.0 -0.0 -0.0 -0.0
-0.0 -0.0 0.0 -0.1125 -0.0 -0.0 -0.0 -0.05807
0.0 -0.0796 0.02194 -0.0 -0.0 -0.0 -0.0 -0.0
00000000: 0080 0b2b 0080 4da9 0000 692e af2d 2ba7
00000010: 3129 0080 0080 0080 46a3 0080 11b0 0080
00000020: 8d2d 0000 ccad 0080 22b4 a2ac 0080 0080
00000030: 0eae 0080 0000 0000 0000 4b29 0080 0080
00000040: 0000 3cad 0000 0000 872c e9b1 0080 0000
00000050: 0000 0000 0080 0080 0080 0fa9 0000 0080
00000060: 0000 0000 0000 5dae 0080 ffac 0080 0000
00000070: 0080 0000 0000 0080 0000 0080 56ad 0000
00000080: 0080 4126 17ac c2ac 0000 0000 0000 0000
00000090: 0000 caad 4126 39b0 0000 0080 d3ac 0000
000000a0: 0000 0000 e9ad 0000 55af 0000 0080 0000
000000b0: 0080 0080 0000 0000 0080 0000 0080 0000
000000c0: 0000 34ad 0000 0080 0080 0080 0000 0080
000000d0: 9326 0080 0000 0000 0080 0000 0000 70b0
000000e0: fbaa 0000 0000 65af 0eab 0080 0080 f4a6
000000f0: 0080 98a9 0000 1f2d 0000 0080 0080 0000
00000100: 0000 0000 0080 0080 0080 0080 0080 0080
00000110: 0080 dbaf 0000 73ad 0000 0080 aead 0000
00000120: 0000 0000 0080 0080 8eb0 0000 0080 0000
00000130: 0080 0bad f9a9 0000 0000 4d2f 0080 0080
00000140: 0000 0080 0000 4aaf 0080 51af 0080 0000
00000150: 0000 0080 0000 0000 0080 0080 0000 0080
00000160: 0000 0000 0000 02af 0080 b22c 0080 0000
00000170: 0080 10ad 792c 0000 0080 0080 0080 0080
00000180: 0080 a62c 0080 0080 0000 0000 0000 0000
00000190: 0000 0000 0080 82ac 69ad 0080 0080 0080
000001a0: 0080 e029 3eaf 0080 5cb1 0000 0080 99ad
000001b0: 0000 9aae 8fac 0000 0000 0000 44ab 0000
000001c0: 0000 0080 0000 c7ab 0000 d9b1 0080 0080
000001d0: 0000 10ad 0000 0080 0080 0080 0080 0080
000001e0: 0080 0080 0000 33af 0080 0080 0080 6fab
000001f0: 0000 18ad 9e25 0080 0080 0080 0080 0080

sequential_3/dense_8/BiasAdd/ReadVariableOp f2 [256]
0.0712 0.0547 -0.0548 0.002178 0.10175 0.07 -0.0465 0.0623
0.2156 -0.0279 -0.0442 -0.02309 -0.002342 0.00845 -0.1265 0.1672
0.04327 0.01438 -0.0683 0.00851 -0.02151 -0.076 0.03235 0.01845
-0.0634 0.04202 0.02751 0.01833 0.0545 -0.003134 0.03162 -0.0372
0.05563 0.04596 0.03217 -0.0846 -0.0886 -0.05356 0.05072 0.03244
0.0583 0.05527 0.04984 0.08716 0.3152 0.2291 0.0596 -0.01387
-0.001182 0.01999 0.0615 0.05322 -0.03122 0.1764 0.04935 -0.03397
-0.075 -0.05972 0.0371 0.01741 -0.0124 -0.0977 0.005196 4.09e-05
0.0835 0.01214 -0.06174 -0.01616 0.02182 0.0327 0.04886 0.08954
-0.02492 0.07556 0.00858 0.05753 0.0673 -0.01238 -0.01958 -0.001319
0.1691 -0.003893 -0.03748 0.0786 0.05908 0.02625 0.0634 -0.04434
0.04544 0.1125 -0.02989 0.2019 0.1787 -0.01967 0.0314 0.03662
-0.02489 -0.02827 0.2186 0.03427 0.0705 -0.001576 -0.004524 0.144
0.09106 0.1266 -0.02103 0.1902 0.05392 -0.07806 0.00342 0.04556
0.05258 -0.06143 0.0682 -0.02905 0.09766 0.1345 0.005535 0.03134
0.0659 -0.1153 0.01605 0.1147 -0.006744 0.1486 0.1638 -0.04053
-0.04486 0.00553 -0.0779 -0.02267 0.1196 0.0645 -0.00738 -0.02333
0.10443 0.0881 0.01491 0.0938 -0.00707 -0.005 0.1088 0.01063
0.0988 0.06323 0.1674 0.04434 -0.0713 -0.0241 0.1827 -0.01347
-0.01932 0.01805 -0.03552 -0.02652 0.01715 -0.03714 0.03885 0.1749
-0.04727 0.1611 0.1879 -0.01665 -0.01559 0.10944 0.118 -0.0645
-0.0769 0.0739 0.032 0.05438 0.011116 0.06946 -0.04068 -0.0483
0.04697 0.0606 -0.05365 0.0318 0.03717 0.04294 0.01204 0.0787
0.12463 -0.01564 0.02126 0.0239 -0.04193 -0.015114 -0.01762 -0.00674
-0.09863 0.02092 -0.06445 0.0636 -0.01736 -0.03024 0.09357 -0.03568
-0.007744 0.0344 0.005257 0.05978 0.1141 0.03616 -0.06076 0.11926
-0.06934 0.02742 -0.04477 -0.004658 0.0693 -0.02367 0.01572 0.1685
0.01093 -0.003637 0.05103 0.004337 -0.03445 0.1781 -0.00811 -0.03433
0.04794 -0.03796 0.1163 0.0837 0.0737 -0.05554 -0.0595 0.0401
0.02719 0.1721 -0.03882 0.11273 -0.0577 0.00925 0.08417 0.09644
0.014595 -0.01419 0.03105 -0.00338 0.1621 0.3247 0.014145 -0.0837
0.06058 0.04272 0.2272 0.05164 -0.04932 0.0335 -0.05646 -0.03302
00000000: 8f2c 002b 04ab 7618 832e 7b2c f4a9 f92b
00000010: e632 24a7 a8a9 e9a5 cc98 5420 0cb0 5a31
00000020: 8a29 5d23 5fac 5b20 82a5 ddac 2428 b924
00000030: 0fac 6129 0b27 b124 fa2a 6b9a 0c28 c3a8
00000040: 1f2b e229 1e28 6aad acad dbaa 7e2a 2728
00000050: 762b 132b 612a 942d 0b35 5533 a12b 1aa3
00000060: d794 1e25 df2b d02a fea7 a531 512a 59a8
00000070: cdac a5ab c028 7524 59a2 41ae 521d ae02
00000080: 582d 3722 e7ab 23a4 9625 3028 412a bb2d
00000090: 61a6 d62c 6520 5d2b 4f2c 57a2 03a5 6795
000000a0: 6931 f99b cca8 082d 902b b826 0f2c ada9
000000b0: d129 332f a7a7 7632 b831 09a5 0528 b028
000000c0: 5fa6 3da7 ff32 6328 832c 7596 a29c 9c30
000000d0: d42d 0d30 62a5 1632 e72a ffac 011b d529
000000e0: bb2a ddab 5d2c 70a7 402e 4e30 ab1d 0328
000000f0: 382c 61af 1c24 572f e89e c130 3e31 30a9
00000100: bea9 aa1d fcac cea5 a82f 212c 8f9f f9a5
00000110: af2e a32d a223 012e 3d9f 1f9d f72e 7121
00000120: 532e 0c2c 5b31 ad29 90ac 2ba6 d931 e6a2
00000130: f2a4 9f24 8ca8 caa6 6424 c1a8 f928 9931
00000140: 0daa 2831 0332 43a4 fba3 012f 8d2f 21ac
00000150: ecac bb2c 1928 f62a b121 722c 35a9 2faa
00000160: 032a c22b deaa 1228 c228 7f29 2a22 092d
00000170: fa2f 01a4 7125 1e26 5ea9 bda3 83a4 e79e
00000180: 50ae 5b25 20ac 122c 72a4 bea7 fd2d 91a8
00000190: ee9f 6728 621d a72b 4d2f a128 c7ab a22f
000001a0: 70ac 0527 bba9 c59c 6f2c 0fa6 0624 6431
000001b0: 9921 739b 882a 711c 69a8 b331 27a0 65a8
000001c0: 232a dca8 712f 5b2d b82c 1cab 9eab 2229
000001d0: f626 8231 f8a8 372f 63ab bc20 632d 2c2e
000001e0: 7923 44a3 f327 ec9a 3031 3235 3e23 5bad
000001f0: c12b 7829 4533 9c2a 50aa 4a28 3aab 3aa8

sequential_3/batch_normalization_9/FusedBatchNormV3 f2 [32]
32.06 30.84 33.53 34.03 33.25 34.25 33.75 30.62
31.5 30.98 29.8 32.06 31.44 31.28 36.2 26.53
34.0 30.7 28.52 29.23 32.6 29.78 30.22 31.64
31.6 31.4 26.78 30.12 29.81 27.77 31.16 31.39
00000000: 0250 b64f 3150 4150 2850 4850 3850 a84f
00000010: e04f bf4f 734f 0250 dc4f d24f 8650 a24e
00000020: 4050 ad4f 214f 4f4f 1350 724f 8e4f e94f
00000030: e64f da4f b24e 884f 744f f14e ca4f d94f

sequential_3/batch_normalization_9/FusedBatchNormV31 f2 [32]
0.0316 -0.0461 -0.3926 -0.01141 -1.475 -0.03085 -0.1431 -0.3584
-0.01866 -0.399 -0.0004785 -0.0536 0.05023 -0.0595 -0.1973 0.002398
-0.2208 -0.006588 0.06366 -0.832 0.02797 -0.485 0.01791 0.0607
0.0422 -0.00652 -0.4197 -0.01955 -0.0172 -0.0246 -0.03802 0.03598
00000000: 0b28 e7a9 48b6 d8a1 e6bd e6a7 94b0 bcb5
00000010: c7a4 62b6 d78f dcaa 6e2a 9eab 50b2 e918
00000020: 11b3 bf9e 132c a8ba 2927 c3b7 9624 c52b
00000030: 6729 ad9e b7b6 01a5 67a4 4ca6 dea8 9b28

sequential_3/batch_normalization_10/FusedBatchNormV3 f2 [64]
3.611 5.746 7.523 4.08 8.125 4.348 8.46 10.69
3.986 4.254 6.207 8.836 8.85 9.16 7.555 9.445
8.664 2.412 3.867 6.36 5.574 4.5 4.87 4.117
3.719 4.1 4.2 4.367 10.27 6.75 6.97 3.68
7.086 4.547 5.953 4.754 5.082 3.873 4.055 10.19
9.21 5.43 4.63 8.516 3.115 4.727 5.543 2.156
4.46 3.037 3.525 6.48 5.61 4.117 3.83 8.266
3.842 3.104 6.637 3.875 5.473 7.26 4.86 8.805
00000000: 3943 bf45 8647 1444 1048 5944 3b48 5849
00000010: f943 4144 3546 6b48 6d48 9448 8e47 b948
00000020: 5548 d340 bc43 5c46 9345 8044 df44 1e44
00000030: 7043 1a44 3344 5e44 2349 c046 f846 5c43
00000040: 1647 8c44 f445 c144 1545 bf43 0e44 1849
00000050: 9b48 6e45 a144 4248 3b42 ba44 8b45 5040
00000060: 7644 1342 0d43 7b46 9c45 1e44 a943 2248
00000070: af43 3542 a346 c043 7945 4347 dc44 6748

sequential_3/batch_normalization_10/FusedBatchNormV31 f2 [64]
-0.07086 -0.2947 -0.1882 -0.4016 -0.358 -0.3733 -0.1488 -0.4995
-0.3708 -0.2927 -0.5947 -0.3809 -0.329 -0.1528 -0.10583 -0.2095
-0.2847 -0.2155 -0.4797 -0.2844 -0.1376 -0.3389 -0.4033 -0.2788
-0.322 -0.1342 -0.5312 -0.2089 -0.2385 -0.2788 -0.1113 -0.7617
-0.3074 -0.2025 -0.271 -0.4805 -0.5063 -0.1164 -0.0616 -0.3218
-0.3145 -0.3477 -0.1978 -0.3787 -0.316 -0.03146 -0.5166 -0.327
-0.2651 -0.1538 -0.579 -0.1321 -0.0826 -0.2063 -0.885 -0.152
-0.5674 -0.285 -0.2013 -0.31 -0.2454 -0.158 -0.1776 -0.02313
00000000: 89ac b7b4 06b2 6db6 bab5 f9b5 c3b0 feb7
00000010: efb5 afb4 c2b8 18b6 44b5 e4b0 c6ae b4b2
00000020: 8eb4 e5b2 adb7 8db4 67b0 6cb5 74b6 76b4
00000030: 27b5 4bb0 40b8 afb2 a2b3 76b4 20af 18ba
00000040: ebb4 7bb2 56b4 b0b7 0db8 73af e3ab 26b5
00000050: 08b5 90b5 54b2 0fb6 0eb5 07a8 22b8 3bb5
00000060: 3eb4 ecb0 a2b8 3ab0 49ad 9ab2 14bb ddb0
00000070: 8ab8 8fb4 71b2 f6b4 dab3 0eb1 afb1 eca5

sequential_3/batch_normalization_11/FusedBatchNormV3 f2 [128]
4.562 4.355 2.252 2.518 1.837 5.37 1.88 1.544
0.6694 2.205 0.5225 1.288 2.979 1.671 1.13 3.787
3.547 2.096 3.904 4.32 1.94 2.857 2.08 2.65
1.567 1.054 0.863 0.979 6.29 0.972 1.979 1.636
1.927 1.949 3.324 2.158 1.069 5.305 1.108 1.234
1.501 1.119 1.666 1.938 3.89 3.715 0.896 2.469
3.717 3.623 3.096 3.36 1.681 1.972 0.898 1.425
0.9565 2.426 3.059 1.199 1.061 3.11 1.513 1.3955
1.931 2.371 1.011 1.046 2.629 3.018 1.012 0.8354
2.375 0.895 1.914 1.682 5.38 1.255 3.51 1.444
1.723 4.168 4.598 3.701 2.602 0.8193 1.716 0.8394
3.785 1.488 0.7485 1.161 0.833 4.53 2.203 1.584
1.637 4.535 4.86 1.779 2.238 1.422 2.062 2.867
1.9375 1.905 1.792 1.09 4.46 1.152 3.174 4.055
0.5537 0.844 0.7686 0.6616 1.402 0.681 0.8135 1.141
1.232 3.777 3.648 2.566 0.8774 0.4624 1.287 0.7676
00000000: 9044 5b44 8140 0941 593f 5f45 853f 2d3e
00000010: 5b39 6940 2e38 273d f541 af3e 853c 9343
00000020: 1843 3140 cf43 5244 c33f b741 2940 4d41
00000030: 453e 373c e73a d53b 4a46 c73b ea3f 8b3e
00000040: b53f cc3f a642 5140 473c 4e45 6f3c f03c
00000050: 013e 7a3c aa3e c13f c843 6e43 2b3b f040
00000060: 6f43 3f43 3142 b842 b93e e33f 2f3b b33d
00000070: a73b da40 1e42 cc3c 3e3c 3842 0d3e 953d
00000080: b93f be40 0b3c 2f3c 4241 0942 0c3c af3a
00000090: c040 293b a83f ba3e 6145 053d 0543 c73d
000000a0: e43e 2b44 9944 6743 3441 8e3a dd3e b73a
000000b0: 9243 f43d fd39 a53c aa3a 8844 6840 563e
000000c0: 8c3e 8944 dc44 1e3f 7a40 b03d 2040 bc41
000000d0: c03f 9f3f 2b3f 5c3c 7644 9c3c 5942 0e44
000000e0: 6e38 c13a 263a 4b39 9c3d 7339 823a 903c
000000f0: ee3c 8e43 4c43 2241 053b 6637 263d 243a

sequential_3/batch_normalization_11/FusedBatchNormV31 f2 [128]
-0.225 -0.0748 -0.3691 -0.2247 -0.3696 -0.2622 -0.2688 -0.3013
-0.6274 -0.3276 -0.7964 -0.3386 -0.2357 -0.2401 -0.3606 -0.1985
-0.1747 -0.331 -0.2292 -0.1648 -0.2922 -0.2095 -0.3289 -0.2249
-0.3206 -0.4893 -0.546 -0.603 -0.1569 -0.5156 -0.368 -0.2922
-0.2688 -0.3345 -0.2744 -0.2551 -0.477 -0.06573 -0.5723 -0.4443
-0.3303 -0.3044 -0.3093 -0.1893 -0.2184 -0.1886 -0.4045 -0.3132
-0.1855 -0.2764 -0.2494 -0.2107 -0.271 -0.2776 -0.3594 -0.411
-0.5806 -0.2432 -0.24 -0.454 -0.5107 -0.2456 -0.3333 -0.3496
-0.2505 -0.293 -0.394 -0.4448 -0.297 -0.2089 -0.5015 -0.61
-0.2607 -0.4412 -0.2153 -0.2854 -0.1279 -0.4932 -0.1349 -0.3567
-0.315 -0.1484 -0.1227 -0.1831 -0.2654 -0.5293 -0.3174 -0.7876
-0.1641 -0.2952 -0.6245 -0.3794 -0.3914 -0.2107 -0.3828 -0.4011
-0.3044 -0.1959 -0.1172 -0.295 -0.3228 -0.4106 -0.2832 -0.3289
-0.3582 -0.3108 -0.3381 -0.4795 -0.1103 -0.2751 -0.1583 -0.135
-0.5576 -0.5576 -0.5044 -0.731 -0.363 -0.5845 -0.5615 -0.5225
-0.4194 -0.2477 -0.2147 -0.12494 -0.5234 -0.863 -0.4375 -0.8237
00000000: 33b3 caac e8b5 31b3 eab5 32b4 4db4 d2b4
00000010: 05b9 3eb5 5fba 6bb5 8bb3 afb3 c5b5 5ab2
00000020: 97b1 4cb5 56b3 46b1 adb4 b4b2 43b5 32b3
00000030: 21b5 d4b7 5eb8 d3b8 05b1 20b8 e3b5 adb4
00000040: 4db4 5ab5 64b4 15b4 a2b7 35ac 94b8 1cb7
00000050: 49b5 dfb4 f3b4 0fb2 fdb2 09b2 79b6 03b5
00000060: f0b1 6cb4 fbb3 beb2 56b4 71b4 c0b5 93b6
00000070: a5b8 c8b3 aeb3 44b7 16b8 dcb3 55b5 98b5
00000080: 02b4 b0b4 4eb6 1eb7 c1b4 afb2 03b8 e1b8
00000090: 2cb4 0fb7 e4b2 91b4 18b0 e4b7 51b0 b5b5
000000a0: 0ab5 c0b0 daaf dcb1 3fb4 3cb8 14b5 4dba
000000b0: 40b1 b9b4 ffb8 12b6 43b6 beb2 20b6 6bb6
000000c0: dfb4 45b2 80af b8b4 2ab5 92b6 88b4 43b5
000000d0: bbb5 f9b4 69b5 acb7 0faf 67b4 11b1 52b0
000000e0: 76b8 76b8 09b8 d9b9 cfb5 adb8 7eb8 2eb8
000000f0: b6b6 edb3 dfb2 ffaf 30b8 e7ba 00b7 97ba

sequential_3/dense_8/MatMul f2 [256, 128]
0.0 -0.0 -0.0 0.0 -0.0 -0.0 -0.0 -0.0
0.0 -0.0 -0.0 -0.0 0.06003 0.0 0.0 0.1829
0.0 0.0 0.1809 -0.0 0.0 -0.0 0.0 -0.0
-0.0 0.184 0.106 -0.0 0.0 -0.0915 -0.0 0.0
-0.0 -0.1251 -0.1924 0.0 -0.1466 0.1705 -0.0 -0.0
0.0 -0.0 -0.0 -0.0 0.0 0.0 -0.0 -0.0
0.0 0.0 -0.0 0.0778 -0.0 0.0 0.1442 -0.0
-0.0 -0.0 -0.1572 -0.0 -0.0 -0.0 -0.0 0.1289
-0.0 0.0 0.0 0.0 -0.0 -0.0 -0.0 0.0
-0.0 -0.0 -0.0 0.0 0.1683 0.0 -0.0 -0.1892
-0.0 -0.0 0.0 0.0 -0.0 0.1361 0.0 -0.0
0.1732 -0.1409 0.0 0.09314 -0.05038 0.0653 0.0 -0.0
0.0 0.0 0.0 -0.0 0.11346 0.0 -0.08716 0.0
0.0 0.0 0.0 -0.0 -0.0 0.0 0.0 -0.0
-0.0 -0.0 -0.0 0.0 -0.0 -0.0 -0.0 -0.0
-0.0 -0.0918 -0.03427 0.0 -0.0 0.0 -0.0 -0.1257
0.0 -0.0 0.0 -0.0 -0.0 -0.0 -0.0 -0.0
0.0 0.0 -0.1526 0.0 0.0 -0.0 0.0 -0.2556
-0.3015 0.0 -0.0 0.0 0.0875 0.0965 0.0 0.0
-0.0 -0.0 0.0 0.0 0.0 0.0 -0.0 0.1241
0.0 -0.0 -0.0 0.0 0.1034 0.0 0.0 -0.0
0.0 0.123 -0.06396 -0.0575 0.0 -0.07794 0.0 0.0
-0.0 -0.1842 0.0 -0.1383 0.0 0.0 -0.0 0.0
0.0 -0.2412 0.06384 0.0 0.0 -0.07245 0.06113 0.0
0.0 0.0 0.0 0.0727 0.0 0.0 0.1461 0.000915
0.0 -0.08984 -0.1376 0.0 0.0 0.0 0.0 0.0
0.0 0.0 -0.0 0.0 0.0 0.0 0.0 0.0
-0.08344 0.0 0.0973 0.0 0.0 0.1948 0.0 0.0
0.0 0.10223 0.0 0.0 -0.0 0.06476 0.1214 0.0
-0.10236 -0.2059 -0.0 0.0 0.0992 -0.0 0.0 0.0
0.0 -0.0 0.0 0.0 0.0 0.0 0.0 0.0
0.179 0.0 0.0 0.0 0.0 -0.2053 0.0 0.0
00000000: 0000 0080 0080 0000 0080 0080 0080 0080
00000010: 0000 0080 0080 0080 af2b 0000 0000 da31
00000020: 0000 0000 ca31 0080 0000 0080 0000 0080
00000030: 0080 e331 c92e 0080 0000 dbad 0080 0000
00000040: 0080 01b0 28b2 0000 b1b0 7531 0080 0080
00000050: 0000 0080 0080 0080 0000 0000 0080 0080
00000060: 0000 0000 0080 fb2c 0080 0000 9d30 0080
00000070: 0080 0080 08b1 0080 0080 0080 0080 2030
00000080: 0080 0000 0000 0000 0080 0080 0080 0000
00000090: 0080 0080 0080 0000 6331 0000 0080 0eb2
000000a0: 0080 0080 0000 0000 0080 5b30 0000 0080
000000b0: 8b31 82b0 0000 f62d 73aa 2e2c 0000 0080
000000c0: 0000 0000 0000 0080 432f 0000 94ad 0000
000000d0: 0000 0000 0000 0080 0080 0000 0000 0080
000000e0: 0080 0080 0080 0000 0080 0080 0080 0080
000000f0: 0080 e0ad 63a8 0000 0080 0000 0080 06b0
00000100: 0000 0080 0000 0080 0080 0080 0080 0080
00000110: 0000 0000 e2b0 0000 0000 0080 0000 17b4
00000120: d3b4 0000 0080 0000 9a2d 2d2e 0000 0000
00000130: 0080 0080 0000 0000 0000 0000 0080 f12f
00000140: 0000 0080 0080 0000 9e2e 0000 0000 0080
00000150: 0000 df2f 18ac 5cab 0000 fdac 0000 0000
00000160: 0080 e5b1 0000 6db0 0000 0000 0080 0000
00000170: 0000 b8b3 162c 0000 0000 a3ac d32b 0000
00000180: 0000 0000 0000 a72c 0000 0000 ad30 7f13
00000190: 0000 c0ad 67b0 0000 0000 0000 0000 0000
000001a0: 0000 0000 0080 0000 0000 0000 0000 0000
000001b0: 57ad 0000 3a2e 0000 0000 3c32 0000 0000
000001c0: 0000 8b2e 0000 0000 0080 252c c52f 0000
000001d0: 8dae 97b2 0080 0000 592e 0080 0000 0000
000001e0: 0000 0080 0000 0000 0000 0000 0000 0000
000001f0: ba31 0000 0000 0000 0000 92b2 0000 0000
