python/ocr_model_fp32.tflite (tflite, 547968 bytes, 16 tensors)

sequential_3/conv2d_4/BiasAdd/ReadVariableOp f4 [32]
-0.02858677 -0.028092396 0.0068527223 -0.02154711 0.05993489 -0.004498109 -0.0016004879 0.0074858386
-0.0023791597 0.017347474 -0.04308002 -0.005958829 -0.004033023 -0.0068707056 0.0028146838 -0.02688154
0.008649201 -0.024710577 -0.0053312536 0.030962473 0.0001953636 0.02115624 -0.0056808176 -0.016396392
-0.021360638 -0.010770232 -0.0045329323 0.0074696667 -0.028507784 -0.021691646 -0.022414003 -0.0106122475
00000000: cd2e eabc 0622 e6bc cd8c e03b 9183 b0bc
00000010: 4a7e 753d e064 93bb 76c7 d1ba c44b f53b
00000020: adeb 1bbb 4a1c 8e3c ad74 30bd 4842 c3bb
00000030: 7327 84bb a823 e1bb 8f76 383b ad36 dcbc
00000040: 61b5 0d3c d66d cabc ccb1 aebb 03a5 fd3c
00000050: 84da 4c39 da4f ad3c 2726 babb ba51 86bc
00000060: 81fc aebc a175 30bc fe88 94bb 1bc4 f43b
00000070: 2889 e9bc aeb2 b1bc 929d b7bc fede 2dbc

sequential_3/conv2d_5/BiasAdd/ReadVariableOp f4 [64]
-0.11705789 -0.05481001 -0.030817524 0.030496055 0.021660276 -0.02222503 -0.10198322 -0.04548589
-0.009459133 -0.03300356 0.045588184 -0.066257 -0.08444989 -0.065746896 -0.02739706 -0.029137686
-0.03678942 -0.020014625 0.019733815 -0.052300435 -0.046911806 -0.011138519 0.026162384 -0.012757018
-0.007631594 -0.04796821 -0.0090986835 -0.079940446 -0.045014493 -0.067769006 -0.079990014 0.052166145
-0.039206162 -0.06876503 -0.05497991 -0.0038586091 0.01818271 -0.079077795 -0.03450646 -0.037008803
0.010421497 -0.012509602 -0.029821228 -0.02892968 0.03890569 -0.06306787 0.046706297 0.027358383
0.006624576 -0.08294053 0.050726764 -0.057468615 -0.05952267 -0.02620356 0.0994952 -0.04250605
0.008049873 -0.012588719 -0.04210392 -0.008998729 -0.025967889 -0.021304602 -0.015465841 -0.050851952
00000000: 0cbc efbd 7680 60bd 0875 fcbc ddd2 f93c
00000010: e470 b13c 4411 b6bc 94dc d0bd 6a4f 3abd
00000020: 7bfa 1abc be2e 07bd adba 3a3d c0b1 87bd
00000030: 10f4 acbd 4fa6 86bd cd6f e0bc 28b2 eebc
00000040: 81b0 16bd b6f5 a3bc cfa8 a13c fb38 56bd
00000050: 9826 40bd 567e 36bc 7f52 d63c d002 51bc
00000060: 7312 fabb 507a 44bd a512 15bc d1b7 a3bd
00000070: 1e61 38bd 7aca 8abd ced1 a3bd 2bac 553d
00000080: a496 20bd aed4 8cbd 9d32 61bd b8e0 7cbb
00000090: e8f3 943c 8af3 a1bd a556 0dbd 8b96 17bd
000000a0: edbe 2a3c 13f5 4cbc a64b f4bc f0fd ecbc
000000b0: 935b 1f3d ba29 81bd 1a4f 3f3d b01e e03c
000000c0: f912 d93b b9dc a9bd dec6 4f3d 3664 6bbd
000000d0: 0bce 73bd d9a8 d6bc 24c4 cb3d d31a 2ebd
000000e0: 9de3 033c ea40 4ebc 2975 2cbd 686f 13bc
000000f0: 9cba d4bc fd86 aebc 7064 7dbc 234a 50bd

sequential_3/conv2d_6/BiasAdd/ReadVariableOp f4 [128]
-0.16716982 -0.05609782 -0.10722223 -0.0871777 -0.0034438418 -0.11416149 -0.082508236 -0.0064430553
-0.030888475 -0.091341704 -0.0465276 -0.09955549 -0.09675949 -0.07992126 -0.054541174 -0.18230358
-0.1807526 -0.08986479 -0.18033475 -0.1581918 -0.027265046 -0.118952736 -0.19282709 -0.10929846
-0.023470972 -0.0047740145 0.00080262416 -0.03702225 -0.14320953 -0.06297136 -0.038961947 -0.029503485
-0.15235557 -0.020131726 -0.011850364 -0.080105126 0.0037186698 -0.16990255 -0.073213324 -0.025722144
-0.16221553 -0.0093113035 -0.12604697 -0.08545528 -0.059272677 -0.043995433 0.058871254 -0.028087776
-0.06914072 -0.119365826 -0.1303793 -0.11603324 -0.024282992 0.0003396328 0.06542621 -0.026145607
0.05994859 -0.17437567 -0.027885487 -0.122938216 0.051335867 -0.104971565 -0.1335416 -0.07509764
-0.04853417 -0.038152702 0.011265755 -0.036797315 -0.09011283 -0.17684512 -0.05058192 0.06799821
-0.12172711 -0.090459265 -0.12382722 -0.10255946 -0.11437864 -0.068339214 -0.039834343 -0.09686883
-0.083467975 -0.11421581 -0.04357265 -0.17786092 -0.11268306 0.081236966 0.009015215 0.0005780196
-0.029831415 -0.02320513 0.036242623 -0.071470365 -0.036301248 -0.13714086 -0.09623953 -0.03378316
-0.049630035 -0.15855986 -0.11087316 -0.034975056 -0.06846144 0.02522566 -0.085925035 -0.063398205
-0.10396263 -0.09362586 -0.045204338 0.076576106 -0.09946043 -0.12215074 -0.07693381 -0.113484316
-0.12698144 0.019676482 0.0024456265 0.09724912 -0.09239479 -0.044313975 -0.027836673 -3.4390905e-05
0.008447129 -0.04339044 -0.04738895 -0.16350481 -0.1303708 -0.012260106 -0.014808807 -0.04000364
00000000: 912e 2bbe d4c6 65bd 5497 dbbd 398a b2bd
00000010: 14b2 61bb 80cd e9bd 14fa a8bd 4420 d3bb
00000020: d409 fdbc 5c11 bbbd ba93 3ebd c0e3 cbbd
00000030: d729 c6bd c2ad a3bd 9166 5fbd caad 3abe
00000040: 3617 39be 080b b8bd aca9 38be 08fd 21be
00000050: f25a dfbc 7e9d f3bd 7774 45be dfd7 dfbd
00000060: 3246 c0bc 566f 9cbb 3267 523a a5a4 17bd
00000070: 85a5 12be 21f7 80bd 9096 1fbd 4bb1 f1bc
00000080: 1903 1cbe 4aeb a4bc 0728 42bc 280e a4bd
00000090: edb4 733b effa 2dbe def0 95bd 3fb7 d2bc
000000a0: d41b 26be 708e 18bc 7512 01be 2e03 afbd
000000b0: e8c7 72bd 8e34 34bd fc22 713d 5618 e6bc
000000c0: a699 8dbd 1276 f4bd 2782 05be d6a2 edbd
000000d0: 20ed c6bc be10 b239 2dfe 853d 502f d6bc
000000e0: a78c 753d 898f 32be 1b70 e4bc 08c7 fbbd
000000f0: 8f45 523d 55fb d6bd 21bf 08be cbcc 99bd
00000100: c4cb 46bd 0246 1cbd 0094 383c c8b8 16bd
00000110: 138d b8bd e316 35be fd2e 4fbd a542 8b3d
00000120: 104c f9bd b542 b9bd 2099 fdbd b20a d2bd
00000130: 593f eabd 6ef5 8bbd 5629 23bd 2a63 c6bd
00000140: 42f1 aabd fbe9 e9bd 3c79 32bd 2c21 36be
00000150: 60c6 e6bd 915f a63d 8db4 133c 3d86 173a
00000160: 0361 f4bc af18 bebc 2573 143d 0e5f 92bd
00000170: 9eb0 14bd a76e 0cbe 3b19 c5bd 3660 0abd
00000180: dd48 4bbd 845d 22be 7811 e3bd 0142 0fbd
00000190: 8335 8cbd 0ba6 ce3c 77f9 afbd ebd6 81bd
000001a0: 5cea d4bd eabe bfbd 2f28 39bd efd3 9c3d
000001b0: e9b1 cbbd 2b2a fabd 798f 9dbd 776a e8bd
000001c0: 6c07 02be 9330 a13c ce46 203b 8c2a c73d
000001d0: 7b39 bdbd 9282 35bd bc09 e4bc f43e 10b8
000001e0: d465 0a3c 2dba 31bd ea1a 42bd ce6d 27be
000001f0: ec7f 05be 9dde 48bc a3a0 72bc dbda 23bd

sequential_3/dense_9/MatMul;sequential_3/dense_9/BiasAdd f4 [36]
6.989665 5.902197 5.1086545 -3.2276435 1.1873472 4.0568776 0.6822808 2.4518285
-3.7369246 1.0908675 3.3026187 -2.536297 6.4781284 4.2064443 -0.8786174 0.6114056
1.5848017 1.7529776 5.83159 2.1322289 1.8084952 2.4295874 0.26455593 3.8459475
6.4630876 1.9127891 4.615605 0.9085335 -2.4638996 4.330664 -1.4744867 0.08703453
-4.2853355 0.22902146 2.831821 -0.69559366
00000000: 56ab df40 ccde bc40 197a a340 b691 4ec0
00000010: fefa 973f f1d1 8140 f4a9 2e3f c2ea 1c40
00000020: c629 6fc0 8ca1 8b3f 1b5e 5340 b152 22c0
00000030: d44c cf40 319b 8640 12ed 60bf 1485 1c3f
00000040: c8da ca3f 9261 e03f 639c ba40 7076 0840
00000050: c57c e73f 5c7e 1b40 e073 873e 0124 7640
00000060: 9dd1 ce40 46d6 f43f 09b3 9340 a795 683f
00000070: 88b0 1dc0 cd94 8a40 fbbb bcbf 293f b23d
00000080: 7821 89c0 9a84 6a3e 8e3c 3540 6d12 32bf

sequential_3/batch_normalization_12/batchnorm/mul_1;sequential_3/batch_normalization_12/batchnorm/add_1;sequential_3/dense_9/MatMul;sequential_3/dense_9/BiasAdd f4 [36, 256]
-0.0 0.0 -0.0 -0.7930282 -0.0 -0.88014823 -0.0 -0.0
-0.5672205 0.0 -1.3996958 -1.33351 -0.0 -0.0 -1.6067518 0.0
-0.0 -0.0 -0.0 -0.8474687 0.0 0.0 0.0 -0.0
-0.0 0.0 -0.0 0.0 0.0 -0.0 0.0 0.0
0.7590441 0.0 0.0 0.0 0.0 0.0 0.0 -0.8285771
0.60709536 -1.4511229 -0.0 -0.0 -0.0 -0.0 -0.0 -1.4637815
-0.0 -0.8939914 -0.8541064 0.0 0.0 -0.82270765 -0.0 -0.8488598
-0.0 -0.0 -0.0 -0.0 -0.0 0.0 -1.2670499 0.0
-0.0 0.0 0.0 -0.0 -0.82775545 0.0 -0.0 -0.0
0.0 0.5380004 0.0 -0.0 -1.2770187 -0.0 -0.9142621 0.0
-0.26890227 -0.0 0.0 -0.0 0.0 -0.0 -0.0 -0.8284904
-0.67557156 0.74574935 -0.0 0.0 0.86017686 -0.71705264 -0.0 -0.0
0.0 -0.538146 -0.0 0.0 0.0 0.0 -0.0 0.0
-0.7887876 -0.0 0.0 0.0 -0.0 0.0 0.0 -0.903476
-0.0 0.0 0.0 -1.0036054 -0.0 0.0 -0.0 0.0
-0.9594963 -0.0 -0.0 -0.0 -0.53233063 -0.0 0.4079528 -0.0
-1.4596905 -0.0 0.0 -0.0 0.8847096 0.0 0.0 -0.6333769
-0.9250553 -0.0 0.0 -0.0 -0.0 -0.0 0.0 0.841644
-0.0 0.0 -0.0 -0.0 -0.0 0.0 -0.0 -0.0
-0.7651451 0.0 -0.77596205 -0.40358922 0.0 0.0 -1.075845 -0.68810993
0.0 -0.9600635 0.0 0.0 -0.6379863 0.0 0.0 -0.0
5.4784484 -0.8332928 -0.0 0.0 -0.0 -0.0 -0.0 -0.0
0.40203667 -0.0 0.0 0.0 0.0 -0.0 -1.3399637 -1.0626245
-0.0 0.0 0.0 -0.0 -1.1927431 -0.67501545 -0.0 0.0
-0.0 -0.0 0.0 -0.96872455 -1.4488589 -0.0 -0.31194827 0.87354267
0.0 -0.9131132 0.0 -0.0 -0.0 0.0 -0.0 -0.37190744
-1.5646099 0.0 0.0 0.0 -0.0 0.0 -0.0 -0.0
-0.0 0.0 0.0 0.0 -1.6555722 0.0 0.0 -2.1444542
0.77071035 -0.0 -0.0 0.0 -0.0 0.0 0.0 -0.0
-0.0 -0.46787181 -0.6603911 -0.6442185 0.0 -0.0 -0.0 0.0
0.0 0.0 -0.0 -0.0 0.29453275 0.0 -0.0 -0.0
0.6070038 0.7930462 -0.0 -0.0 -0.0 -0.0 1.3265636 -2.701351
00000000: 0000 0080 0000 0000 0000 0080 e503 4bbf
00000010: 0000 0080 6551 61bf 0000 0080 0000 0080
00000020: 5d35 11bf 0000 0000 3b29 b3bf 75b0 aabf
00000030: 0000 0080 0000 0080 0baa cdbf 0000 0000
00000040: 0000 0080 0000 0080 0000 0080 b5f3 58bf
00000050: 0000 0000 0000 0000 0000 0000 0000 0080
00000060: 0000 0080 0000 0000 0000 0080 0000 0000
00000070: 0000 0000 0000 0080 0000 0000 0000 0000
00000080: b750 423f 0000 0000 0000 0000 0000 0000
00000090: 0000 0000 0000 0000 0000 0000 a11d 54bf
000000a0: 9a6a 1b3f 65be b9bf 0000 0080 0000 0080
000000b0: 0000 0080 0000 0080 0000 0080 315d bbbf
000000c0: 0000 0080 9fdc 64bf b8a6 5abf 0000 0000
000000d0: 0000 0000 f89c 52bf 0000 0080 e04e 59bf
000000e0: 0000 0080 0000 0080 0000 0080 0000 0080
000000f0: 0000 0080 0000 0000 b12e a2bf 0000 0000
00000100: 0000 0080 0000 0000 0000 0000 0000 0080
00000110: c8e7 53bf 0000 0000 0000 0080 0000 0080
00000120: 0000 0000 65ba 093f 0000 0000 0000 0080
00000130: 5975 a3bf 0000 0080 150d 6abf 0000 0000
00000140: 8fad 89be 0000 0080 0000 0000 0000 0080
00000150: 0000 0000 0000 0080 0000 0080 f217 54bf
00000160: 42f2 2cbf 6ee9 3e3f 0000 0080 0000 0000
00000170: 8d34 5c3f c390 37bf 0000 0080 0000 0080
00000180: 0000 0000 f0c3 09bf 0000 0080 0000 0000
00000190: 0000 0000 0000 0000 0000 0080 0000 0000
000001a0: fced 49bf 0000 0080 0000 0000 0000 0000
000001b0: 0000 0080 0000 0000 0000 0000 344a 67bf
000001c0: 0000 0080 0000 0000 0000 0000 2476 80bf
000001d0: 0000 0080 0000 0000 0000 0080 0000 0000
000001e0: 8da1 75bf 0000 0080 0000 0080 0000 0080
000001f0: d246 08bf 0000 0080 30df d03e 0000 0080
00000200: 23d7 babf 0000 0080 0000 0000 0000 0080
00000210: 547c 623f 0000 0000 0000 0000 fd24 22bf
00000220: 6dd0 6cbf 0000 0080 0000 0000 0000 0080
00000230: 0000 0080 0000 0080 0000 0000 fb75 573f
00000240: 0000 0080 0000 0000 0000 0080 0000 0080
00000250: 0000 0080 0000 0000 0000 0080 0000 0080
00000260: 8de0 43bf 0000 0000 73a5 46bf 3fa3 cebe
00000270: 0000 0000 0000 0000 4ab5 89bf f927 30bf
00000280: 0000 0000 b9c6 75bf 0000 0000 0000 0000
00000290: 1253 23bf 0000 0000 0000 0000 0000 0080
000002a0: 734f af40 ad52 55bf 0000 0080 0000 0000
000002b0: 0000 0080 0000 0080 0000 0080 0000 0080
000002c0: c0d7 cd3e 0000 0080 0000 0000 0000 0000
000002d0: 0000 0000 0000 0080 ee83 abbf 1404 88bf
000002e0: 0000 0080 0000 0000 0000 0000 0000 0080
000002f0: ceab 98bf d0cd 2cbf 0000 0080 0000 0000
00000300: 0000 0080 0000 0080 0000 0000 55fe 77bf
00000310: 3574 b9bf 0000 0080 afb7 9fbe 7ea0 5f3f
00000320: 0000 0000 c9c1 69bf 0000 0000 0000 0080
00000330: 0000 0080 0000 0000 0000 0080 a76a bebe
00000340: 2345 c8bf 0000 0000 0000 0000 0000 0000
00000350: 0000 0080 0000 0000 0000 0080 0000 0080
00000360: 0000 0080 0000 0000 0000 0000 0000 0000
00000370: cae9 d3bf 0000 0000 0000 0000 bd3e 09c0
00000380: 464d 453f 0000 0080 0000 0080 0000 0000
00000390: 0000 0080 0000 0000 0000 0000 0000 0080
000003a0: 0000 0080 e58c efbe 640f 29bf 81eb 24bf
000003b0: 0000 0000 0000 0080 0000 0080 0000 0000
000003c0: 0000 0000 0000 0000 0000 0080 0000 0080
000003d0: ffcc 963e 0000 0000 0000 0080 0000 0080
000003e0: 9a64 1b3f 1305 4b3f 0000 0080 0000 0080
000003f0: 0000 0080 0000 0080 d6cc a93f efe2 2cc0

sequential_3/conv2d_4/Conv2D f4 [32, 3, 3, 1]
0.0 0.0 0.0 0.0 0.0 0.0 -0.19368982 0.0
0.11805536 -0.15101162 0.0 0.0 0.093419865 0.0 0.0 0.0
-0.10540253 -0.102940105 -0.0 -0.09029966 -0.11332721 -0.0 -0.0 -0.0
-0.0 -0.0 0.20523857 0.0 0.0 0.0 0.0 -0.1553558
0.0 0.0 0.10084415 0.0 -0.0 0.1592616 -0.13529304 -0.09159974
-0.0 -0.0 -0.0 0.17360277 -0.12575182 -0.0 -0.0 -0.15357418
-0.0 0.0 0.0 0.0 0.11901604 0.0 -0.09199714 -0.11693267
-0.121160336 0.13538317 0.19023776 0.0 0.0 0.0 0.0 -0.15207514
0.0 0.0 0.0 0.0 0.15346327 0.0 0.0 0.0
0.13573274 0.0 0.0 0.0 0.0 0.0 0.0 -0.16998413
-0.0 -0.16938788 0.10089906 0.0 0.0 0.0 0.0 0.0
-0.091671385 0.15231965 0.0 0.0 0.0 0.0 0.0 0.0
-0.16943571 0.0 0.0 -0.0 -0.0 0.15619233 -0.16761425 -0.0
-0.0 -0.0 -0.0 -0.0 0.0 0.0 0.0 -0.11167317
0.0 -0.13346386 0.0 0.0 -0.13276108 0.0 0.0 0.0
0.0 0.0 0.0 -0.14450489 0.0 0.0 0.0 0.0
0.15904859 0.0 0.0 0.0 0.0 -0.16012113 0.0 0.0
0.0 0.0 0.0 0.0 0.0 0.0 0.0 0.0
0.10976359 0.0 0.0 0.0 0.0 0.0 0.0 -0.110840015
0.0 0.0 0.0 0.0 0.0 -0.13202976 0.0 0.0
-0.17080674 0.10896626 0.0 -0.11592282 -0.0 0.15871297 -0.0 -0.0
-0.12347727 -0.0 -0.0 -0.0 -0.0 -0.0 -0.0 -0.0
-0.0 -0.0 -0.0 -0.0 -0.0 -0.0 -0.13349137 -0.1380208
0.109981745 -0.0 -0.0 -0.0 0.10126256 0.0 0.0 0.14686364
-0.15470256 0.11142741 -0.10800265 0.0 0.0 0.0 0.0 0.0
0.0 0.0 0.0 0.0 0.14322473 -0.170647 0.0 -0.11879541
-0.091745794 0.0 -0.10608626 0.0 0.09622805 0.0 0.0 -0.14047004
-0.08992521 0.121140175 0.0 -0.13048811 -0.13201861 0.0 0.0 0.0
0.0 0.0 0.0 0.0 0.0 0.0 -0.1469531 0.0
0.0 0.0 0.0 0.0 0.0 0.11513988 0.11461774 -0.110926226
0.0 -0.0943092 0.0 0.0 0.1421406 0.0 0.0 0.0
-0.106821574 -0.2008864 0.0 0.0 -0.14032906 0.0 0.0 0.0
00000000: 0000 0000 0000 0000 0000 0000 0000 0000
00000010: 0000 0000 0000 0000 a056 46be 0000 0000
00000020: 02c7 f13d caa2 1abe 0000 0000 0000 0000
00000030: ea52 bf3d 0000 0000 0000 0000 0000 0000
00000040: 48dd d7bd 43d2 d2bd 0000 0080 07ef b8bd
00000050: 1918 e8bd 0000 0080 0000 0080 0000 0080
00000060: 0000 0080 0000 0080 0f2a 523e 0000 0000
00000070: 0000 0000 0000 0000 0000 0000 9715 1fbe
00000080: 0000 0000 0000 0000 6187 ce3d 0000 0000
00000090: 0000 0080 7915 233e 428a 0abe a598 bbbd
000000a0: 0000 0080 0000 0080 0000 0080 edc4 313e
000000b0: 16c5 00be 0000 0080 0000 0080 8d42 1dbe
000000c0: 0000 0080 0000 0000 0000 0000 0000 0000
000000d0: aebe f33d 0000 0000 ff68 bcbd 657a efbd
000000e0: e922 f8bd e3a1 0a3e b0cd 423e 0000 0000
000000f0: 0000 0000 0000 0000 0000 0000 96b9 1bbe
00000100: 0000 0000 0000 0000 0000 0000 0000 0000
00000110: 7a25 1d3e 0000 0000 0000 0000 0000 0000
00000120: 86fd 0a3e 0000 0000 0000 0000 0000 0000
00000130: 0000 0000 0000 0000 0000 0000 5210 2ebe
00000140: 0000 0080 0474 2dbe 2ba4 ce3d 0000 0000
00000150: 0000 0000 0000 0000 0000 0000 0000 0000
00000160: 35be bbbd aff9 1b3e 0000 0000 0000 0000
00000170: 0000 0000 0000 0000 0000 0000 0000 0000
00000180: 8e80 2dbe 0000 0000 0000 0000 0000 0080
00000190: 0000 0080 e2f0 1f3e 12a3 2bbe 0000 0080
000001a0: 0000 0080 0000 0080 0000 0080 0000 0080
000001b0: 0000 0000 0000 0000 0000 0000 e7b4 e4bd
000001c0: 0000 0000 c0aa 08be 0000 0000 0000 0000
000001d0: 85f2 07be 0000 0000 0000 0000 0000 0000
000001e0: 0000 0000 0000 0000 0000 0000 17f9 13be
000001f0: 0000 0000 0000 0000 0000 0000 0000 0000
00000200: a2dd 223e 0000 0000 0000 0000 0000 0000
00000210: 0000 0000 cbf6 23be 0000 0000 0000 0000
00000220: 0000 0000 0000 0000 0000 0000 0000 0000
00000230: 0000 0000 0000 0000 0000 0000 0000 0000
00000240: bccb e03d 0000 0000 0000 0000 0000 0000
00000250: 0000 0000 0000 0000 0000 0000 1700 e3bd
00000260: 0000 0000 0000 0000 0000 0000 0000 0000
00000270: 0000 0000 cf32 07be 0000 0000 0000 0000
00000280: f6e7 2ebe b429 df3d 0000 0000 f268 edbd
00000290: 0000 0080 a785 223e 0000 0080 0000 0080
000002a0: a7e1 fcbd 0000 0080 0000 0080 0000 0080
000002b0: 0000 0080 0000 0080 0000 0080 0000 0080
000002c0: 0000 0080 0000 0080 0000 0080 0000 0080
000002d0: 0000 0080 0000 0080 f6b1 08be 5355 0dbe
000002e0: 1c3e e13d 0000 0080 0000 0080 0000 0080
000002f0: bf62 cf3d 0000 0000 0000 0000 6c63 163e
00000300: 596a 1ebe 0e34 e43d 7e30 ddbd 0000 0000
00000310: 0000 0000 0000 0000 0000 0000 0000 0000
00000320: 0000 0000 0000 0000 0000 0000 0000 0000
00000330: 81a9 123e 16be 2ebe 0000 0000 024b f3bd
00000340: 38e5 bbbd 0000 0000 c143 d9bd 0000 0000
00000350: 3613 c53d 0000 0000 0000 0000 61d7 0fbe
00000360: b52a b8bd 5718 f83d 0000 0000 ad9e 05be
00000370: e32f 07be 0000 0000 0000 0000 0000 0000
00000380: 0000 0000 0000 0000 0000 0000 0000 0000
00000390: 0000 0000 0000 0000 e07a 16be 0000 0000
000003a0: 0000 0000 0000 0000 0000 0000 0000 0000
000003b0: 0000 0000 75ce eb3d b5bc ea3d 4a2d e3bd
000003c0: 0000 0000 2f25 c1bd 0000 0000 0000 0000
000003d0: 4e8d 113e 0000 0000 0000 0000 0000 0000
000003e0: 45c5 dabd 2ab5 4dbe 0000 0000 0000 0000
000003f0: 6cb2 0fbe 0000 0000 0000 0000 0000 0000

sequential_3/conv2d_5/Conv2D f4 [64, 3, 3, 32]
0.0 0.12894903 0.114354834 0.122093916 -0.0 -0.0 -0.0 0.0
-0.0 0.0 0.0 -0.046094906 0.0 0.097250775 -0.15223587 0.0
0.0 -0.0 0.068688475 -0.0620911 -0.0 0.0 -0.039833896 -0.10211067
0.0 -0.0 -0.0 -0.15923747 -0.0 -0.0 0.13341556 0.0
-0.07544972 -0.0 -0.08541512 -0.0 -0.0 0.08398366 -0.0 0.0
0.0 0.0 0.14152212 -0.072924756 0.0 0.16451474 0.0 -0.10395806
-0.0 -0.0 0.0 0.0 -0.0 0.12127786 -0.048316818 -0.16887464
-0.13566726 -0.07761817 -0.0 -0.06671271 -0.0 -0.06954371 -0.0 0.0
-0.081812784 -0.0 -0.0 -0.0 0.11165686 0.08754366 0.07635482 0.0
0.0 0.0 0.0 0.0 0.0 0.18176639 0.13433893 0.0
0.0 -0.0 -0.100420855 0.0 -0.08846796 0.0 0.0 0.0
0.0 -0.0 0.086633466 0.14368929 -0.0 -0.0 0.17740308 -0.12718861
0.0 -0.0 0.103990145 -0.0 -0.0 0.0 0.10617818 -0.06245975
0.11952893 0.0 0.0 0.0 0.0 -0.0 -0.0859569 0.0
-0.15894258 -0.0 0.0 0.0 0.0 0.0 0.0 -0.122714214
-0.18442589 -0.0 -0.0 -0.063303106 -0.0 -0.0 0.09585322 0.0
-0.14943103 -0.0 0.0 0.06603087 0.0 0.0 -0.0 0.0
0.05930208 0.0 -0.008326745 -0.0 0.0 -0.0 -0.12428247 0.0
0.0 -0.0 -0.10686301 0.05462003 0.0 0.0 0.0 -0.15575866
-0.15804353 -0.0 0.039408777 0.0 0.07925421 -0.0 -0.0 0.0
0.0 0.16620578 0.0 -0.0 0.07711569 0.12565663 0.07974486 0.0
0.0 -0.12369032 0.13983248 0.0 0.0 -0.0 -0.09253053 0.0
0.0 -0.035243902 -0.09632954 0.0 -0.059048355 -0.11653641 0.11055432 -0.17048024
0.0 0.121753015 0.0 0.0 -0.0 -0.0 -0.0 0.0
-0.15626173 -0.0 0.0 -0.0 -0.05192857 0.0 -0.07441159 0.0
0.0 0.0 -0.013778959 0.045008466 0.0 -0.0 -0.26264125 0.0
-0.11125447 -0.0 0.0 0.0 0.0 0.0 0.0 0.0
0.0 0.108824365 -0.0 -0.0 0.12114544 -0.0 -0.0 -0.12091259
0.0 -0.0 0.07731368 0.07376338 0.09690093 0.0 0.08560184 0.0
-0.12315375 0.0 -0.0 0.0 -0.100054316 0.16553822 -0.09138825 -0.0
0.0 -0.0 -0.107635096 0.0 0.0 0.0 0.0 -0.12607026
0.0 -0.061593916 -0.0 -0.0 -0.0 -0.0 0.08209598 -0.08547856
00000000: 0000 0000 370b 043e de32 ea3d 600c fa3d
00000010: 0000 0080 0000 0080 0000 0080 0000 0000
00000020: 0000 0080 0000 0000 0000 0000 03ce 3cbd
00000030: 0000 0000 6a2b c73d b8e3 1bbe 0000 0000
00000040: 0000 0000 0000 0080 8bac 8c3d 3d53 7ebd
00000050: 0000 0080 0000 0000 de28 23bd 661f d1bd
00000060: 0000 0000 0000 0080 0000 0080 260f 23be
00000070: 0000 0080 0000 0080 179e 083e 0000 0000
00000080: 6285 9abd 0000 0080 1fee aebd 0000 0080
00000090: 0000 0080 a0ff ab3d 0000 0080 0000 0000
000000a0: 0000 0000 0000 0000 2deb 103e 9359 95bd
000000b0: 0000 0000 8d76 283e 0000 0000 f7e7 d4bd
000000c0: 0000 0080 0000 0080 0000 0000 0000 0000
000000d0: 0000 0080 8760 f83d dbe7 45bd 79ed 2cbe
000000e0: 5cec 0abe 46f6 9ebd 0000 0080 aca0 88bd
000000f0: 0000 0080 ef6c 8ebd 0000 0080 0000 0000
00000100: 768d a7bd 0000 0080 0000 0080 0000 0080
00000110: 5aac e43d 174a b33d ea5f 9c3d 0000 0000
00000120: 0000 0000 0000 0000 0000 0000 0000 0000
00000130: 0000 0000 f820 3a3e 2590 093e 0000 0000
00000140: 0000 0000 0000 0080 73a9 cdbd 0000 0000
00000150: b12e b5bd 0000 0000 0000 0000 0000 0000
00000160: 0000 0000 0000 0080 e36c b13d 4923 133e
00000170: 0000 0080 0000 0080 27a9 353e bb3d 02be
00000180: 0000 0000 0000 0080 c9f8 d43d 0000 0080
00000190: 0000 0080 0000 0000 f273 d93d cbd5 7fbd
000001a0: 95cb f43d 0000 0000 0000 0000 0000 0000
000001b0: 0000 0000 0000 0080 2c0a b0bd 0000 0000
000001c0: d8c1 22be 0000 0080 0000 0000 0000 0000
000001d0: 0000 0000 0000 0000 0000 0000 9751 fbbd
000001e0: 24da 3cbe 0000 0080 0000 0080 0fa5 81bd
000001f0: 0000 0080 0000 0080 b14e c43d 0000 0000
00000200: 7304 19be 0000 0080 0000 0000 313b 873d
00000210: 0000 0000 0000 0000 0000 0080 0000 0000
00000220: bde6 723d 0000 0000 e66c 08bc 0000 0080
00000230: 0000 0000 0000 0080 cf87 febd 0000 0000
00000240: 0000 0000 0000 0080 feda dabd 41b9 5f3d
00000250: 0000 0000 0000 0000 0000 0000 337f 1fbe
00000260: 2ad6 21be 0000 0080 196b 213d 0000 0000
00000270: 0850 a23d 0000 0080 0000 0080 0000 0000
00000280: 0000 0000 d931 2a3e 0000 0000 0000 0080
00000290: d5ee 9d3d 22ac 003e 4651 a33d 0000 0000
000002a0: 0000 0000 5a51 fdbd 3f30 0f3e 0000 0000
000002b0: 0000 0000 0000 0080 a680 bdbd 0000 0000
000002c0: 0000 0000 e95b 10bd 6c48 c5bd 0000 0000
000002d0: b0dc 71bd a4aa eebd 4e6a e23d 5f92 2ebe
000002e0: 0000 0000 a559 f93d 0000 0000 0000 0000
000002f0: 0000 0080 0000 0080 0000 0080 0000 0000
00000300: 1303 20be 0000 0080 0000 0000 0000 0080
00000310: 0db3 54bd 0000 0000 1b65 98bd 0000 0000
00000320: 0000 0000 0000 0000 25c1 61bc cc5a 383d
00000330: 0000 0000 0000 0080 ea78 86be 0000 0000
00000340: 62d9 e3bd 0000 0080 0000 0000 0000 0000
00000350: 0000 0000 0000 0000 0000 0000 0000 0000
00000360: 0000 0000 4fdf de3d 0000 0080 0000 0080
00000370: 1a1b f83d 0000 0080 0000 0080 05a1 f7bd
00000380: 0000 0000 0000 0080 a256 9e3d 4111 973d
00000390: ff73 c63d 0000 0000 0450 af3d 0000 0000
000003a0: 0938 fcbd 0000 0000 0000 0080 0000 0000
000003b0: 47e9 ccbd da82 293e c329 bbbd 0000 0080
000003c0: 0000 0000 0000 0080 ca6f dcbd 0000 0000
000003d0: 0000 0000 0000 0000 0000 0000 9018 01be
000003e0: 0000 0000 e749 7cbd 0000 0080 0000 0080
000003f0: 0000 0080 0000 0080 f021 a83d 620f afbd

sequential_3/conv2d_6/Conv2D f4 [128, 3, 3, 64]
-0.0 0.055020537 -0.0 -0.041404482 0.0 0.1001794 0.08881844 -0.027994964
0.040567704 -0.0 -0.0 -0.0 -0.01420425 -0.0 -0.12703937 -0.0
0.08671515 0.0 -0.090555444 -0.0 -0.2582936 -0.07240319 -0.0 -0.0
-0.09459682 -0.0 0.0 0.0 0.0 0.04135341 -0.0 -0.0
0.0 -0.08178109 0.0 0.0 0.07075721 -0.1846979 -0.0 0.0
0.0 0.0 -0.0 -0.0 -0.0 -0.03951772 0.0 -0.0
0.0 0.0 0.0 -0.09940678 -0.0 -0.07808127 -0.0 0.0
-0.0 0.0 0.0 -0.0 0.0 -0.0 -0.08337091 0.0
-0.0 0.024429 -0.06392916 -0.074347526 0.0 0.0 0.0 0.0
0.0 -0.09042839 0.024435699 -0.13197921 0.0 -0.0 -0.0753534 0.0
0.0 0.0 -0.092371814 0.0 -0.11458899 0.0 -0.0 0.0
-0.0 -0.0 0.0 0.0 -0.0 0.0 -0.0 0.0
0.0 -0.08129995 0.0 -0.0 -0.0 -0.0 0.0 -0.0
0.025678584 -0.0 0.0 0.0 -0.0 0.0 0.0 -0.13869886
-0.054527987 0.0 0.0 -0.11553445 -0.05512381 -0.0 -0.0 -0.027167158
-0.0 -0.043689236 0.0 0.080015175 0.0 -0.0 -0.0 0.0
0.0 0.0 -0.0 -0.0 -0.0 -0.0 -0.0 -0.0
-0.0 -0.122718245 0.0 -0.08513616 0.0 -0.0 -0.08875635 0.0
0.0 0.0 -0.0 -0.0 -0.14232902 0.0 -0.0 0.0
-0.0 -0.078769505 -0.046669696 0.0 0.0 0.11405536 -0.0 -0.0
0.0 -0.0 0.0 -0.11387859 -0.0 -0.114321314 -0.0 0.0
0.0 -0.0 0.0 0.0 -0.0 -0.0 0.0 -0.0
0.0 0.0 0.0 -0.10951636 -0.0 0.07335489 -0.0 0.0
-0.0 -0.079126514 0.06986724 0.0 -0.0 -0.0 -0.0 -0.0
-0.0 0.07260585 -0.0 -0.0 0.0 0.0 0.0 0.0
0.0 0.0 -0.0 -0.07040568 -0.08451824 -0.0 -0.0 -0.0
-0.0 0.045894388 -0.113163866 -0.0 -0.16747959 0.0 -0.0 -0.08746634
0.0 -0.1031597 -0.07122946 0.0 0.0 0.0 -0.056772616 0.0
0.0 -0.0 0.0 -0.060762532 0.0 -0.18269922 -0.0 -0.0
0.0 -0.07907883 0.0 -0.0 -0.0 -0.0 -0.0 -0.0
-0.0 -0.0 0.0 -0.11249682 -0.0 -0.0 -0.0 -0.0580859
0.0 -0.079566814 0.021944704 -0.0 -0.0 -0.0 -0.0 -0.0
00000000: 0000 0080 375d 613d 0000 0080 bf97 29bd
00000010: 0000 0000 db2a cd3d 71e6 b53d b255 e5bc
00000020: 522a 263d 0000 0080 0000 0080 0000 0080
00000030: f1b8 68bc 0000 0080 9c16 02be 0000 0080
00000040: b697 b13d 0000 0000 2275 b9bd 0000 0080
00000050: 0f3f 84be 2048 94bd 0000 0080 0000 0080
00000060: fabb c1bd 0000 0080 0000 0000 0000 0000
00000070: 0000 0000 3162 293d 0000 0080 0000 0080
00000080: 0000 0000 d87c a7bd 0000 0000 0000 0000
00000090: 28e9 903d 7221 3dbe 0000 0080 0000 0000
000000a0: 0000 0000 0000 0000 0000 0080 0000 0080
000000b0: 0000 0080 55dd 21bd 0000 0000 0000 0080
000000c0: 0000 0000 0000 0000 0000 0000 c895 cbbd
000000d0: 0000 0080 13e9 9fbd 0000 0080 0000 0000
000000e0: 0000 0080 0000 0000 0000 0000 0000 0080
000000f0: 0000 0000 0000 0080 5ebe aabd 0000 0000
00000100: 0000 0080 541f c83c 4bed 82bd 8443 98bd
00000110: 0000 0000 0000 0000 0000 0000 0000 0000
00000120: 0000 0000 8532 b9bd 602d c83c 8f25 07be
00000130: 0000 0000 0000 0080 e252 9abd 0000 0000
00000140: 0000 0000 0000 0000 6f2d bdbd 0000 0000
00000150: a2ad eabd 0000 0000 0000 0080 0000 0000
00000160: 0000 0080 0000 0080 0000 0000 0000 0000
00000170: 0000 0080 0000 0000 0000 0080 0000 0000
00000180: 0000 0000 9780 a6bd 0000 0000 0000 0080
00000190: 0000 0080 0000 0080 0000 0000 0000 0080
000001a0: e55b d23c 0000 0080 0000 0000 0000 0000
000001b0: 0000 0080 0000 0000 0000 0000 1307 0ebe
000001c0: bd58 5fbd 0000 0000 0000 0000 539d ecbd
000001d0: 81c9 61bd 0000 0080 0000 0080 a98d debc
000001e0: 0000 0080 7cf3 32bd 0000 0000 ffde a33d
000001f0: 0000 0000 0000 0080 0000 0080 0000 0000
00000200: 0000 0000 0000 0000 0000 0080 0000 0080
00000210: 0000 0080 0000 0080 0000 0080 0000 0080
00000220: 0000 0080 b453 fbbd 0000 0000 de5b aebd
00000230: 0000 0000 0000 0080 e4c5 b5bd 0000 0000
00000240: 0000 0000 0000 0000 0000 0080 0000 0080
00000250: b3be 11be 0000 0000 0000 0080 0000 0000
00000260: 0000 0080 e851 a1bd b928 3fbd 0000 0000
00000270: 0000 0000 db95 e93d 0000 0080 0000 0080
00000280: 0000 0000 0000 0080 0000 0000 2e39 e9bd
00000290: 0000 0080 4b21 eabd 0000 0080 0000 0000
000002a0: 0000 0000 0000 0080 0000 0000 0000 0000
000002b0: 0000 0080 0000 0080 0000 0000 0000 0080
000002c0: 0000 0000 0000 0000 0000 0000 1d4a e0bd
000002d0: 0000 0080 173b 963d 0000 0080 0000 0000
000002e0: 0000 0080 150d a2bd 8e16 8f3d 0000 0000
000002f0: 0000 0080 0000 0080 0000 0080 0000 0080
00000300: 0000 0080 60b2 943d 0000 0080 0000 0080
00000310: 0000 0000 0000 0000 0000 0000 0000 0000
00000320: 0000 0000 0000 0000 0000 0080 da30 90bd
00000330: e617 adbd 0000 0080 0000 0080 0000 0080
00000340: 0000 0080 c1fb 3b3d 75c2 e7bd 0000 0080
00000350: c57f 2bbe 0000 0000 0000 0080 8d21 b3bd
00000360: 0000 0000 6545 d3bd c0e0 91bd 0000 0000
00000370: 0000 0000 0000 0000 678a 68bd 0000 0000
00000380: 0000 0000 0000 0080 0000 0000 22e2 78bd
00000390: 0000 0000 8115 3bbe 0000 0080 0000 0080
000003a0: 0000 0000 15f4 a1bd 0000 0000 0000 0080
000003b0: 0000 0080 0000 0080 0000 0080 0000 0080
000003c0: 0000 0080 0000 0080 0000 0000 bc64 e6bd
000003d0: 0000 0080 0000 0080 0000 0080 7beb 6dbd
000003e0: 0000 0000 edf3 a2bd 61c5 b33c 0000 0080
000003f0: 0000 0080 0000 0080 0000 0080 0000 0080

sequential_3/dense_8/BiasAdd/ReadVariableOp f4 [256]
0.07121997 0.054685734 -0.054814123 0.0021776045 0.10175924 0.07003168 -0.04651869 0.06228833
0.21555153 -0.02788758 -0.04419655 -0.023082683 -0.0023425904 0.008450303 -0.12650381 0.16727802
0.043278534 0.014382178 -0.068322 0.0085095065 -0.021519361 -0.07597834 0.032340303 0.018447552
-0.06339032 0.042030845 0.027508657 0.018322939 0.054511547 -0.0031339335 0.03160486 -0.03720026
0.05562766 0.04597452 0.032170128 -0.084591955 -0.088648275 -0.053560592 0.05071938 0.03243662
0.05827697 0.055278912 0.049844213 0.08715658 0.3152971 0.22913745 0.05959786 -0.013872963
-0.0011819133 0.019988831 0.061489165 0.053213354 -0.031222688 0.17642322 0.049352597 -0.033965155
-0.075000845 -0.059720747 0.037120834 0.017405361 -0.012394471 -0.097742215 0.005193854 4.088012e-05
0.083523616 0.012139103 -0.061728053 -0.01615301 0.021812689 0.032720596 0.048867825 0.08952886
-0.024920873 0.07557521 0.0085847555 0.057539135 0.06730072 -0.012381755 -0.01957043 -0.0013186549
0.16911894 -0.0038935046 -0.03747003 0.07858377 0.05907038 0.026251767 0.06340608 -0.044343024
0.045448735 0.112497665 -0.029886171 0.20195644 0.17871974 -0.019669136 0.031409886 0.036625337
-0.024888033 -0.0282796 0.21859097 0.03427254 0.0704765 -0.0015763317 -0.0045244293 0.14406905
0.0910683 0.12663662 -0.021033607 0.1902094 0.053934004 -0.07804081 0.0034203853 0.04557673
0.052580964 -0.061425697 0.06815553 -0.02905511 0.09768148 0.13457258 0.0055367034 0.03133518
0.06589526 -0.11529223 0.016049286 0.114672534 -0.0067433305 0.14851514 0.16386046 -0.040521633
-0.044847056 0.005532601 -0.07790175 -0.022675734 0.11964719 0.064519964 -0.007380754 -0.023332814
0.10443875 0.08806651 0.01491015 0.09381246 -0.007067302 -0.0049995733 0.10883761 0.010630324
0.09881127 0.063241936 0.16730438 0.04433218 -0.07131268 -0.024093378 0.18268234 -0.01347304
-0.019310828 0.01805713 -0.03553356 -0.026515346 0.017148668 -0.037140172 0.03883502 0.17491753
-0.047274675 0.16108648 0.18787266 -0.016645443 -0.01558733 0.10943889 0.11797651 -0.06450976
-0.076920055 0.0739101 0.03201004 0.05438086 0.011115504 0.069486044 -0.04067274 -0.04831302
0.04697314 0.06061926 -0.053649336 0.031792488 0.03717975 0.042948667 0.012041361 0.07865082
0.124654934 -0.015635055 0.02125665 0.023898799 -0.04194129 -0.015115985 -0.017617205 -0.0067387694
-0.098651886 0.020926075 -0.064437434 0.063610494 -0.017357783 -0.030239766 0.09354957 -0.035672437
-0.0077443654 0.034392625 0.0052552023 0.05979509 0.11407823 0.036157243 -0.060749725 0.119264916
-0.06930865 0.027424585 -0.04476078 -0.00465901 0.06925248 -0.02366701 0.015709173 0.16845858
0.010930232 -0.003637405 0.051031824 0.004337647 -0.034448735 0.1781408 -0.008109896 -0.034334045
0.047956623 -0.037977494 0.11624329 0.08368129 0.0737212 -0.055554647 -0.059510857 0.040107504
0.027185658 0.17211223 -0.03882311 0.11271627 -0.05770215 0.009250541 0.08418048 0.09640924
0.014597684 -0.014193279 0.031052489 -0.0033791047 0.16207361 0.32461894 0.014146814 -0.0836493
0.060569126 0.0427362 0.22722508 0.05164727 -0.04933081 0.033511896 -0.056463167 -0.033018738
00000000: c7db 913d 26fe 5f3d c684 60bd 24b6 0e3b
00000010: 2667 d03d c56c 8f3d 628a 3ebd 0c22 7f3d
00000020: 8ab9 5c3e 7f74 e4bc 7107 35bd e517 bdbc
00000030: 2586 19bb 2473 0a3c 378a 01be ee4a 2b3e
00000040: d544 313d 3aa3 6b3c 68ec 8bbd 756b 0b3c
00000050: 5f49 b0bc 889a 9bbd 4477 043d 521f 973c
00000060: c9d2 81bd 8928 2c3d d659 e13c fd19 963c
00000070: 8047 5f3d ae62 4dbb 1974 013d 4d5f 18bd
00000080: d4d9 633d c74f 3c3d d3c4 033d 8c3e adbd
00000090: 3a8d b5bd 5a62 5bbd 20bf 4f3d 43dc 043d
000000a0: d5b3 6e3d 246c 623d 7229 4c3d 267f b23d
000000b0: 9f6e a13e 02a3 6a3e e31c 743d 6d4b 63bc
000000c0: 6eea 9aba 9ebf a33c 10dc 7b3d 3ff6 593d
000000d0: b9c6 ffbc 4aa8 343e f325 4a3d 0c1f 0bbd
000000e0: 0b9a 99bd be9d 74bd 040c 183d b095 8e3c
000000f0: 2e12 4bbc 122d c8bd 3531 aa3b b276 2b38
00000100: 6e0e ab3d 17e3 463c 8ed6 7cbd 5153 84bc
00000110: 86b0 b23c 0806 063d a129 483d e85a b73d
00000120: dc26 ccbc 2dc7 9a3d 13a7 0c3c 28ae 6b3d
00000130: f6d4 893d d8dc 4abc 2b52 a0bc b7d6 acba
00000140: 842d 2d3e 2b2a 7fbb 2d7a 19bd 87f0 a03d
00000150: c8f3 713d f20d d73c 0cdb 813d 08a1 35bd
00000160: 7428 3a3d 2d65 e63d d8d3 f4bc abcd 4e3e
00000170: 4f02 373e 2b21 a1bc a7a7 003d 7304 163d
00000180: fde1 cbbc 9faa e7bc 50d6 5f3e 5d61 0c3d
00000190: fc55 903d ea9c ceba aa41 94bb d686 133e
000001a0: 0482 ba3d 08ad 013e ac4e acbc 41c6 423e
000001b0: e7e9 5c3d dcd3 9fbd 8b28 603b aaae 3a3d
000001c0: 235f 573d 8399 7bbd 2095 8b3d fb04 eebc
000001d0: 3a0d c83d 65cd 093e 3c6d b53b 5159 003d
000001e0: 18f4 863d 551e ecbd cb79 833c 6fd9 ea3d
000001f0: 28f7 dcbb 5a14 183e 09cb 273e 03fa 25bd
00000200: 8cb1 37bd d24a b53b f48a 9fbd 76c2 b9bc
00000210: 9609 f53d 0b23 843d 41da f1bb 7524 bfbc
00000220: fce3 d53d 375c b43d b449 743c bf20 c03d
00000230: d394 e7bb 76d3 a3bb 41e6 de3d cf2a 2e3c
00000240: 905d ca3d fd84 813d d751 2b3e a995 353d
00000250: 620c 92bd 7a5f c5bc 1411 3b3e 07be 5cbc
00000260: be31 9ebc 8cec 933c a38b 11bd b636 d9bc
00000270: 5d7b 8c3c 4b20 18bd 7811 1f3d 951d 333e
00000280: 17a3 41bd dbf3 243e b161 403e 065c 88bc
00000290: 0062 7fbc 7f21 e03d ab9d f13d b11d 84bd
000002a0: 4388 9dbd 2e5e 973d f61c 033d 77be 5e3d
000002b0: ce1d 363c b34e 8e3d 7698 26bd e0e3 45bd
000002c0: e866 403d e74b 783d 68bf 5bbd d738 023d
000002d0: cb49 183d f1ea 2f3d 2149 453c ae13 a13d
000002e0: 164b ff3d 1615 80bc 6d22 ae3c 6ac7 c33c
000002f0: a1ca 2bbd 09a9 77bc f551 90bc e5d0 dcbb
00000300: 000a cabd 296d ab3c c6f7 83bd 3846 823d
00000310: e931 8ebc 63b9 f7bc eb96 bf3d 431d 12bd
00000320: 72c4 fdbb 48df 0c3d d533 ac3b b2eb 743d
00000330: d9a1 e93d 9e19 143d b4d4 78bd 2a41 f43d
00000340: b2f1 8dbd 86a9 e03c 1457 37bd 9caa 98bb
00000350: 3fd4 8d3d 51e1 c1bc 86b0 803c 6880 2c3e
00000360: b714 333c 8861 6ebb bf06 513d d222 8e3b
00000370: 1e1a 0dbd 8b6a 363e 5fdf 04bc dba1 0cbd
00000380: 2a6e 443d 4a8e 1bbd f610 ee3d 1961 ab3d
00000390: 24fb 963d 458d 63bd a8c1 73bd c447 243d
000003a0: 75b4 de3c 303e 303e fb04 1fbd cad7 e63d
000003b0: 1759 6cbd 958f 173c d166 ac3d 3572 c53d
000003c0: 202b 6f3c ed8a 68bc ca61 fe3c f873 5dbb
000003d0: a0f6 253e 7434 a63e 0ac8 673c 5350 abbd
000003e0: 5517 783d 270c 2f3d b1ad 683e 168c 533d
000003f0: 1a0f 4abd c543 093d ec45 67bd a83e 07bd

sequential_3/batch_normalization_9/FusedBatchNormV3 f4 [32]
32.05653 30.850494 33.53042 34.043015 33.254623 34.25493 33.74865 30.63267
31.497416 30.9917 29.801992 32.061764 31.43793 31.274744 36.19968 26.53256
33.99495 30.707201 28.510094 29.241663 32.597286 29.777742 30.225582 31.643085
31.597155 31.409868 26.7841 30.118198 29.809195 27.770203 31.160845 31.396162
00000000: e339 0042 d0cd f641 261f 0642 0c2c 0842
00000010: bc04 0542 0c05 0942 9efe 0642 b50f f541
00000020: b5fa fb41 00ef f741 7b6a ee41 3f3f 0042
00000030: e180 fb41 ad32 fa41 79cc 1042 af42 d441
00000040: d4fa 0742 59a8 f541 ac14 e441 edee e941
00000050: 9f63 0242 d138 ee41 fecd f141 0a25 fd41
00000060: f9c6 fc41 6947 fb41 d645 d641 12f2 f041
00000070: 3b79 ee41 6029 de41 6949 f941 572b fb41

sequential_3/batch_normalization_9/FusedBatchNormV31 f4 [32]
0.031596474 -0.046121996 -0.39256272 -0.011414251 -1.4744092 -0.030848399 -0.14307642 -0.35828793
-0.018666435 -0.398899 -0.0004783879 -0.05358258 0.05021977 -0.059513096 -0.19730017 0.0023974273
-0.22081284 -0.0065868525 0.063652724 -0.83198047 0.027970351 -0.4851157 0.01791367 0.060701385
0.042212892 -0.006518192 -0.4196842 -0.01953962 -0.017200315 -0.02460185 -0.038033012 0.035978816
00000000: 4e6b 013d 6bea 3cbd fbfd c8be d702 3bbc
00000010: 71b9 bcbf c8b5 fcbc a082 12be 8471 b7be
00000020: 5aea 98bc 7d3c ccbe 23d0 fab9 6879 5bbd
00000030: 3fb3 4d3d 01c4 73bd 0e09 4abe 281e 1d3b
00000040: c31c 62be 86d6 d7bb 5c5c 823d acfc 54bf
00000050: 1422 e53c 1661 f8be b0bf 923c 04a2 783d
00000060: 6de7 2c3d 8f96 d5bb d9e0 d6be 8e11 a0bc
00000070: ade7 8cbc d289 c9bc 81c8 1bbd 865e 133d

sequential_3/batch_normalization_10/FusedBatchNormV3 f4 [64]
3.6117332 5.745127 7.5245748 4.07765 8.124682 4.346719 8.457623 10.686936
3.9855525 4.2558 6.205873 8.834994 8.852736 9.1572 7.5561023 9.44409
8.662418 2.4128933 3.8672233 6.359522 5.574242 4.5006523 4.8725066 4.1155186
3.7186327 4.1015277 4.197414 4.3684654 10.272968 6.7492514 6.96907 3.6790736
7.086902 4.545072 5.9529634 4.7538977 5.0805407 3.872905 4.0561113 10.186035
9.208331 5.4300685 4.6273937 8.515945 3.114916 4.7272234 5.54116 2.1555223
4.462564 3.036545 3.5255992 6.481414 5.609898 4.116679 3.8309155 8.262339
3.8427017 3.1032662 6.6359243 3.8743832 5.4740243 7.2620993 4.8610845 8.803044
00000000: a326 6740 15d8 b740 51c9 f040 1c7c 8240
00000010: b3fe 0141 5218 8b40 6c52 0741 b1fd 2a41
00000020: 4b13 7f40 832f 8840 8396 c640 235c 0d41
00000030: cfa4 0d41 e483 1241 97cb f140 fe1a 1741
00000040: 4499 0a41 d86c 1a40 9680 7740 3481 cb40
00000050: 3160 b240 5805 9040 93eb 9b40 54b2 8340
00000060: 14fe 6d40 b73f 8340 3751 8640 78ca 8b40
00000070: 145e 2441 def9 d740 9f02 df40 f175 6b40
00000080: e7c7 e240 3b71 9140 ad7e be40 ee1f 9840
00000090: ca93 a240 addd 7740 aacb 8140 00fa 2241
000000a0: 5355 1341 1fc3 ad40 9c13 9440 5041 0841
000000b0: c95a 4740 6a45 9740 2f51 b140 14f4 0940
000000c0: 53cd 8e40 c156 4240 6ba3 6140 be67 cf40
000000d0: 4984 b340 d6bb 8340 b82d 7540 8a32 0441
000000e0: d3ee 7540 ea9b 4640 7e59 d440 e5f5 7740
000000f0: 352b af40 1e63 e840 018e 9b40 45d9 0c41

sequential_3/batch_normalization_10/FusedBatchNormV31 f4 [64]
-0.07088363 -0.29479828 -0.1881892 -0.40164578 -0.3579699 -0.37322503 -0.1487901 -0.499518
-0.37096775 -0.2927902 -0.59480846 -0.3808114 -0.3291358 -0.15281112 -0.10581207 -0.20952085
-0.28457367 -0.21547815 -0.47974727 -0.28445804 -0.13756892 -0.3389601 -0.4032129 -0.27869713
-0.32200116 -0.13420598 -0.5312297 -0.20890525 -0.23847204 -0.27877885 -0.11129865 -0.76176286
-0.3074098 -0.20253447 -0.27098584 -0.48054492 -0.50636107 -0.11641601 -0.061624557 -0.32182306
-0.31439835 -0.34766036 -0.1977997 -0.37875408 -0.31591925 -0.031461358 -0.51646614 -0.3269766
-0.26504984 -0.15385899 -0.5791335 -0.13203815 -0.082597315 -0.20634076 -0.8848762 -0.15196691
-0.5671734 -0.28480926 -0.20125732 -0.31001928 -0.24532539 -0.15800272 -0.17756158 -0.023132086
00000000: 702b 91bd cdef 96be abb4 40be 84a4 cdbe
00000010: d547 b7be 5a17 bfbe 6f5c 18be d3c0 ffbe
00000020: 7cef bdbe 99e8 95be 5e45 18bf b6f9 c2be
00000030: 7d84 a8be 857a 1cbe 00b4 d8bd a28c 56be
00000040: a4b3 91be 4ea6 5cbe 6fa1 f5be 7ca4 91be
00000050: dede 0cbe 2e8c adbe ec71 cebe 64b1 8ebe
00000060: 56dd a4be 4b6d 09be abfe 07bf 42eb 55be
00000070: 0432 74be 1abc 8ebe 8cf0 e3bd e402 43bf
00000080: d164 9dbe 3265 4fbe a8be 8abe fc09 f6be
00000090: e1a0 01bf 846b eebd 086a 7cbd fec5 a4be
000000a0: d2f8 a0be 8a00 b2be 018c 4abe 0eec c1be
000000b0: 2bc0 a1be a0dd 00bd 2037 04bf 7a69 a7be
000000c0: 9db4 87be 368d 1dbe 1842 14bf 0235 07be
000000d0: c828 a9bd fe4a 53be 3f87 62bf 379d 1bbe
000000e0: 4732 11bf 85d2 91be 6616 4ebe d9ba 9ebe
000000f0: 9436 7bbe 77cb 21be b4d2 35be 807f bdbc

sequential_3/batch_normalization_11/FusedBatchNormV3 f4 [128]
4.5630555 4.356975 2.2527568 2.5178738 1.8368466 5.3696933 1.8802066 1.5437468
0.66967285 2.2058403 0.5224812 1.287776 2.9783545 1.6709647 1.1296256 3.7875881
3.5472472 2.0947294 3.9041991 4.3190804 1.940232 2.8578157 2.0810153 2.649754
1.5670753 1.0541562 0.86263204 0.97912353 6.2880335 0.97198486 1.9783266 1.6359354
1.9263357 1.9489757 3.3239553 2.1586905 1.0697846 5.3054037 1.1083302 1.2344675
1.500717 1.1186924 1.6655989 1.9379903 3.8901453 3.71526 0.8960197 2.4682753
3.716214 3.6227896 3.0964577 3.3594341 1.6805029 1.9713203 0.897847 1.4244022
0.95640266 2.426294 3.0583074 1.1994904 1.0606856 3.109339 1.5122447 1.3956796
1.9308038 2.371651 1.0104977 1.046061 2.6281178 3.0179026 1.0112932 0.83562106
2.3743126 0.89497626 1.914047 1.6820704 5.3771896 1.2550169 3.5104585 1.4443811
1.7225517 4.167964 4.596365 3.7010965 2.601654 0.8192949 1.7158035 0.8391414
3.7845566 1.4882038 0.748458 1.1608299 0.8330044 4.5298505 2.2024858 1.5835077
1.6366856 4.5346804 4.857518 1.7796577 2.2374842 1.4217131 2.0623472 2.8670285
1.9377675 1.9053968 1.7917082 1.089713 4.46218 1.1525594 3.174095 4.0550733
0.55354923 0.8443104 0.76875544 0.66147643 1.4025142 0.68138593 0.8136513 1.1410785
1.2327616 3.7765102 3.6483614 2.565886 0.8774217 0.46229792 1.2873887 0.76737416
00000000: 8d04 9240 576c 8b40 2b2d 1040 d824 2140
00000010: ca1d eb3f 87d4 ab40 9caa f03f 7f99 c53f
00000020: ae6f 2b3f 7d2c 0d40 54c1 053f d8d5 a43f
00000030: 5c9d 3e40 2ce2 d53f 9297 903f d867 7240
00000040: 1906 6340 0c10 0640 66de 7940 e835 8a40
00000050: 8659 f83f 74e6 3640 5b2f 0540 9295 2940
00000060: ec95 c83f 97ee 863f 74d5 5c3f d7a7 7a3f
00000070: 9237 c940 00d4 783f ce39 fd3f 5566 d13f
00000080: 2b92 f63f 0978 f93f afbb 5440 fc27 0a40
00000090: b4ee 883f dec5 a940 c4dd 8d3f 0803 9e3f
000000a0: 7f17 c03f 5031 8f3f 5832 d53f 1110 f83f
000000b0: 24f8 7840 d2c6 6d40 8c61 653f 39f8 1d40
000000c0: 73d6 6d40 c9db 6740 5d2c 4640 f800 5740
000000d0: b81a d73f 3954 fc3f 4dd9 653f d052 b63f
000000e0: ced6 743f 6748 1b40 4fbb 4340 e788 993f
000000f0: 8cc4 873f 69ff 4640 3c91 c13f a1a5 b23f
00000100: 9424 f73f 21c9 1740 fd57 813f 54e5 853f
00000110: 1533 2840 5125 4140 0e72 813f 43eb 553f
00000120: bdf4 1740 2a1d 653f 7eff f43f 154e d73f
00000130: f011 ac40 65a4 a03f 5aab 6040 7be1 b83f
00000140: 937c dc3f f65f 8540 6c15 9340 c4de 6c40
00000150: 8081 2640 50bd 513f 739f db3f f9d1 563f
00000160: 2d36 7240 767d be3f f29a 3f3f 1396 943f
00000170: c73f 553f 89f4 9040 87f5 0c40 61b0 ca3f
00000180: ea7e d13f 1a1c 9140 ca70 9b40 d3cb e33f
00000190: f132 0f40 b2fa b53f 7ffd 0340 657d 3740
000001a0: c408 f83f 0be4 f33f b256 e53f b77b 8b3f
000001b0: 2eca 8e40 1187 933f 5f24 4b40 29c3 8140
000001c0: 67b5 0d3f ba24 583f 28cd 443f 8556 293f
000001d0: 9685 b33f 4f6f 2e3f 744b 503f dc0e 923f
000001e0: 22cb 9d3f 58b2 7140 c17e 6940 7a37 2440
000001f0: b59e 603f 50b2 ec3e 27c9 a43f a272 443f

sequential_3/batch_normalization_11/FusedBatchNormV31 f4 [128]
-0.22497573 -0.07482139 -0.36914667 -0.22467092 -0.36973232 -0.2622 -0.2688411 -0.30131915
-0.62763524 -0.32773578 -0.7962696 -0.3387056 -0.23576209 -0.24014297 -0.36053535 -0.19851905
-0.17468338 -0.33103067 -0.22919822 -0.16479757 -0.2921691 -0.2094292 -0.3289636 -0.224837
-0.3206168 -0.489251 -0.54598343 -0.60322464 -0.15682238 -0.51553166 -0.36790645 -0.29218772
-0.26870838 -0.33445558 -0.2743644 -0.25505817 -0.4771524 -0.065710485 -0.5724826 -0.44444713
-0.33043325 -0.30434853 -0.3094339 -0.18931702 -0.21839373 -0.18861762 -0.40449893 -0.31330103
-0.18550026 -0.2764812 -0.24944668 -0.21065393 -0.270934 -0.2777075 -0.35926548 -0.4108278
-0.58072174 -0.2431337 -0.24003759 -0.45399323 -0.5105375 -0.24560761 -0.3332236 -0.34952348
-0.25045228 -0.29306296 -0.39411905 -0.44470856 -0.29717344 -0.20888774 -0.50160867 -0.6097128
-0.26070035 -0.4411363 -0.21535712 -0.28550535 -0.12791695 -0.49310365 -0.13484873 -0.3567606
-0.31488892 -0.14838883 -0.12267624 -0.18313187 -0.26535055 -0.5293974 -0.3172868 -0.7874781
-0.16406366 -0.2951836 -0.62432224 -0.37944025 -0.39130023 -0.21074343 -0.38277927 -0.4011045
-0.3045279 -0.19594516 -0.11721284 -0.2948441 -0.32282537 -0.41071737 -0.28316808 -0.3287818
-0.35805398 -0.31069922 -0.3382337 -0.47941002 -0.110293746 -0.27517492 -0.15826817 -0.13499883
-0.5574429 -0.55746037 -0.5045558 -0.73108685 -0.36305428 -0.58458334 -0.56149185 -0.52269155
-0.41943097 -0.24771664 -0.21469757 -0.12494179 -0.5236186 -0.8627158 -0.4374525 -0.8236616
00000000: 0a60 66be f53b 99bd cb00 bdbe 2210 66be
00000010: 8e4d bdbe 143f 86be 8aa5 89be 8146 9abe
00000020: b4ac 20bf fccc a7be 53d8 4bbf d26a adbe
00000030: 9e6b 71be 0ae8 75be 1798 b8be 9448 4bbe
00000040: 33e0 32be da7c a9be f0b2 6abe b2c0 28be
00000050: 3097 95be 9c74 56be eb6d a8be ac3b 66be
00000060: e327 a4be 1b7f fabe 92c5 0bbf ee6c 1abf
00000070: 0c96 20be e2f9 03bf 3c5e bcbe a199 95be
00000080: 2594 89be c33d abbe 7e79 8cbe fc96 82be
00000090: 524d f4be 3893 86bd 388e 12bf 938e e3be
000000a0: 8c2e a9be 92d3 9bbe 1f6e 9ebe 52dc 41be
000000b0: 9ba2 5fbe fa24 41be 7c1a cfbe fe68 a0be
000000c0: c8f3 3dbe f28e 8dbe f36e 7fbe aab5 57be
000000d0: dcb7 8abe ad2f 8ebe a5f1 b7be 0558 d2be
000000e0: 2eaa 14bf 0af8 78be 6acc 75be cd71 e8be
000000f0: 96b2 02bf 9080 7bbe 499c aabe bef4 b2be
00000100: 483b 80be 590c 96be f9c9 c9be d7b0 e3be
00000110: 1e27 98be abe6 55be 6d69 00bf 2316 1cbf
00000120: 847a 85be 9edc e1be 9486 5cbe c22d 92be
00000130: a9fc 02be 1578 fcbe c915 0abe 53a9 b6be
00000140: 1f39 a1be 3ef3 17be ae3d fbbd ec86 3bbe
00000150: 07dc 87be 9786 07bf 6a73 a2be 2a98 49bf
00000160: 4e00 28be 4e22 97be 95d3 1fbf fe45 c2be
00000170: 8158 c8be 20cd 57be a5fb c3be 925d cdbe
00000180: 15eb 9bbe d9a5 48be 490d f0bd cef5 96be
00000190: 5e49 a5be 8c49 d2be 68fb 90be 1756 a8be
000001a0: da52 b7be f813 9fbe f82c adbe 3b75 f5be
000001b0: b0e1 e1bd bae3 8cbe 0d11 22be 223d 0abe
000001c0: 94b4 0ebf b9b5 0ebf 922a 01bf 8228 3bbf
000001d0: 40e2 b9be 41a7 15bf eebd 0fbf 1dcf 05bf
000001e0: a8bf d6be 6ea9 7dbe aed9 5bbe 7be1 ffbd
000001f0: de0b 06bf f1da 5cbf c6f9 dfbe 7ddb 52bf

sequential_3/dense_8/MatMul f4 [256, 128]
0.0 -0.0 -0.0 0.0 -0.0 -0.0 -0.0 -0.0
0.0 -0.0 -0.0 -0.0 0.060016163 0.0 0.0 0.18286893
0.0 0.0 0.1808672 -0.0 0.0 -0.0 0.0 -0.0
-0.0 0.18397114 0.10599469 -0.0 0.0 -0.09146545 -0.0 0.0
-0.0 -0.1251201 -0.19242159 0.0 -0.14666674 0.17050105 -0.0 -0.0
0.0 -0.0 -0.0 -0.0 0.0 0.0 -0.0 -0.0
0.0 0.0 -0.0 0.07781184 -0.0 0.0 0.14414902 -0.0
-0.0 -0.0 -0.15725593 -0.0 -0.0 -0.0 -0.0 0.12891589
-0.0 0.0 0.0 0.0 -0.0 -0.0 -0.0 0.0
-0.0 -0.0 -0.0 0.0 0.16835399 0.0 -0.0 -0.18915105
-0.0 -0.0 0.0 0.0 -0.0 0.13611324 0.0 -0.0
0.17326643 -0.14086765 0.0 0.09316182 -0.050382063 0.065326855 0.0 -0.0
0.0 0.0 0.0 -0.0 0.11348841 0.0 -0.0871522 0.0
0.0 0.0 0.0 -0.0 -0.0 0.0 0.0 -0.0
-0.0 -0.0 -0.0 0.0 -0.0 -0.0 -0.0 -0.0
-0.0 -0.09180946 -0.034264956 0.0 -0.0 0.0 -0.0 -0.12569113
0.0 -0.0 0.0 -0.0 -0.0 -0.0 -0.0 -0.0
0.0 0.0 -0.15255022 0.0 0.0 -0.0 0.0 -0.25570104
-0.30161113 0.0 -0.0 0.0 0.08749768 0.09649985 0.0 0.0
-0.0 -0.0 0.0 0.0 0.0 0.0 -0.0 0.12406691
0.0 -0.0 -0.0 0.0 0.10339194 0.0 0.0 -0.0
0.0 0.12299221 -0.06396193 -0.057480868 0.0 -0.07794104 0.0 0.0
-0.0 -0.184189 0.0 -0.13835005 0.0 0.0 -0.0 0.0
0.0 -0.24126466 0.063871674 0.0 0.0 -0.072422296 0.06112414 0.0
0.0 0.0 0.0 0.07267031 0.0 0.0 0.14613156 0.0009152477
0.0 -0.08982243 -0.13759996 0.0 0.0 0.0 0.0 0.0
0.0 0.0 -0.0 0.0 0.0 0.0 0.0 0.0
-0.08346447 0.0 0.09727844 0.0 0.0 0.19479208 0.0 0.0
0.0 0.10223535 0.0 0.0 -0.0 0.06478001 0.12142161 0.0
-0.10237326 -0.20597814 -0.0 0.0 0.09919273 -0.0 0.0 0.0
0.0 -0.0 0.0 0.0 0.0 0.0 0.0 0.0
0.17895684 0.0 0.0 0.0 0.0 -0.20530589 0.0 0.0
00000000: 0000 0000 0000 0080 0000 0080 0000 0000
00000010: 0000 0080 0000 0080 0000 0080 0000 0080
00000020: 0000 0000 0000 0080 0000 0080 0000 0080
00000030: 82d3 753d 0000 0000 0000 0000 fe41 3b3e
00000040: 0000 0000 0000 0000 4035 393e 0000 0080
00000050: 0000 0000 0000 0080 0000 0000 0000 0080
00000060: 0000 0080 ee62 3c3e be13 d93d 0000 0080
00000070: 0000 0000 3d52 bbbd 0000 0080 0000 0000
00000080: 0000 0080 7c1f 00be 2a0a 45be 0000 0000
00000090: ce2f 16be d497 2e3e 0000 0080 0000 0080
000000a0: 0000 0000 0000 0080 0000 0080 0000 0080
000000b0: 0000 0000 0000 0000 0000 0080 0000 0080
000000c0: 0000 0000 0000 0000 0000 0080 d05b 9f3d
000000d0: 0000 0080 0000 0000 cd9b 133e 0000 0080
000000e0: 0000 0080 0000 0080 b307 21be 0000 0080
000000f0: 0000 0080 0000 0080 0000 0080 8702 043e
00000100: 0000 0080 0000 0000 0000 0000 0000 0000
00000110: 0000 0080 0000 0080 0000 0080 0000 0000
00000120: 0000 0080 0000 0080 0000 0080 0000 0000
00000130: fd64 2c3e 0000 0000 0000 0080 d0b0 41be
00000140: 0000 0080 0000 0080 0000 0000 0000 0000
00000150: 0000 0080 4561 0b3e 0000 0000 0000 0080
00000160: c16c 313e 9c3f 10be 0000 0000 a0cb be3d
00000170: 6c5d 4ebd 16ca 853d 0000 0000 0000 0080
00000180: 0000 0000 0000 0000 0000 0000 0000 0080
00000190: 9d6c e83d 0000 0000 da7c b2bd 0000 0000
000001a0: 0000 0000 0000 0000 0000 0000 0000 0080
000001b0: 0000 0080 0000 0000 0000 0000 0000 0080
000001c0: 0000 0080 0000 0080 0000 0080 0000 0000
000001d0: 0000 0080 0000 0080 0000 0080 0000 0080
000001e0: 0000 0080 9906 bcbd 6959 0cbd 0000 0000
000001f0: 0000 0080 0000 0000 0000 0080 2db5 00be
00000200: 0000 0000 0000 0080 0000 0000 0000 0080
00000210: 0000 0080 0000 0080 0000 0080 0000 0080
00000220: 0000 0000 0000 0000 2036 1cbe 0000 0000
00000230: 0000 0000 0000 0080 0000 0000 3feb 82be
00000240: c66c 9abe 0000 0000 0000 0080 0000 0000
00000250: fc31 b33d b7a1 c53d 0000 0000 0000 0000
00000260: 0000 0080 0000 0080 0000 0000 0000 0000
00000270: 0000 0000 0000 0000 0000 0080 cb16 fe3d
00000280: 0000 0000 0000 0080 0000 0080 0000 0000
00000290: 27bf d33d 0000 0000 0000 0000 0000 0080
000002a0: 0000 0000 57e3 fb3d 79fe 82bd 0f71 6bbd
000002b0: 0000 0000 8d9f 9fbd 0000 0000 0000 0000
000002c0: 0000 0080 0b9c 3cbe 0000 0000 a3ab 0dbe
000002d0: 0000 0000 0000 0000 0000 0080 0000 0000
000002e0: 0000 0000 150e 77be 27cf 823d 0000 0000
000002f0: 0000 0000 2452 94bd 4e5d 7a3d 0000 0000
00000300: 0000 0000 0000 0000 0000 0000 2cd4 943d
00000310: 0000 0000 0000 0000 83a3 153e 3ced 6f3a
00000320: 0000 0000 d2f4 b7bd 01e7 0cbe 0000 0000
00000330: 0000 0000 0000 0000 0000 0000 0000 0000
00000340: 0000 0000 0000 0000 0000 0080 0000 0000
00000350: 0000 0000 0000 0000 0000 0000 0000 0000
00000360: 6cef aabd 0000 0000 eb39 c73d 0000 0000
00000370: 0000 0000 9377 473e 0000 0000 0000 0000
00000380: 0000 0000 c460 d13d 0000 0000 0000 0000
00000390: 0000 0080 62ab 843d e5ab f83d 0000 0000
000003a0: 12a9 d1bd efeb 52be 0000 0080 0000 0000
000003b0: 8f25 cb3d 0000 0080 0000 0000 0000 0000
000003c0: 0000 0000 0000 0080 0000 0000 0000 0000
000003d0: 0000 0000 0000 0000 0000 0000 0000 0000
000003e0: 7640 373e 0000 0000 0000 0000 0000 0000
000003f0: 0000 0000 b53b 52be 0000 0000 0000 0000
