python/ocr_model_quantized.tflite (tflite, 150160 bytes, 11 tensors)

sequential_3/batch_normalization_12/batchnorm/mul_1;sequential_3/batch_normalization_12/batchnorm/add_1;sequential_3/dense_9/MatMul;sequential_3/dense_9/BiasAdd i1 [36, 256] scale=0.058780324 zero_point=0
000000 00 00 00 f3 00 f1 00 00 f6 00 e8 e9 00 00 e5 00
       0.0 0.0 0.0 -0.7641442 0.0 -0.88170487 0.0 0.0 -0.58780324 0.0 -1.4107277 -1.3519474 0.0 0.0 -1.5870688 0.0
000010 00 00 00 f2 00 00 00 00 00 00 00 00 00 00 00 00
       0.0 0.0 0.0 -0.82292455 0.0 0.0 0.0 0.0 0.0 0.0 0.0 0.0 0.0 0.0 0.0 0.0
000020 0d 00 00 00 00 00 00 f2 0a e7 00 00 00 00 00 e7
       0.7641442 0.0 0.0 0.0 0.0 0.0 0.0 -0.82292455 0.58780324 -1.469508 0.0 0.0 0.0 0.0 0.0 -1.469508
000030 00 f1 f1 00 00 f2 00 f2 00 00 00 00 00 00 ea 00
       0.0 -0.88170487 -0.88170487 0.0 0.0 -0.82292455 0.0 -0.82292455 0.0 0.0 0.0 0.0 0.0 0.0 -1.2931671 0.0
000040 00 00 00 00 f2 00 00 00 00 09 00 00 ea 00 f0 00
       0.0 0.0 0.0 0.0 -0.82292455 0.0 0.0 0.0 0.0 0.52902293 0.0 0.0 -1.2931671 0.0 -0.9404852 0.0
000050 fb 00 00 00 00 00 00 f2 f5 0d 00 00 0f f4 00 00
       -0.29390162 0.0 0.0 0.0 0.0 0.0 0.0 -0.82292455 -0.64658356 0.7641442 0.0 0.0 0.88170487 -0.70536387 0.0 0.0
000060 00 f7 00 00 00 00 00 00 f3 00 00 00 00 00 00 f1
       0.0 -0.52902293 0.0 0.0 0.0 0.0 0.0 0.0 -0.7641442 0.0 0.0 0.0 0.0 0.0 0.0 -0.88170487
000070 00 00 00 ef 00 00 00 00 f0 00 00 00 f7 00 07 00
       0.0 0.0 0.0 -0.9992655 0.0 0.0 0.0 0.0 -0.9404852 0.0 0.0 0.0 -0.52902293 0.0 0.41146228 0.0
000080 e7 00 00 00 0f 00 00 f5 f0 00 00 00 00 00 00 0e
       -1.469508 0.0 0.0 0.0 0.88170487 0.0 0.0 -0.64658356 -0.9404852 0.0 0.0 0.0 0.0 0.0 0.0 0.82292455
000090 00 00 00 00 00 00 00 00 f3 00 f3 f9 00 00 ee f4
       0.0 0.0 0.0 0.0 0.0 0.0 0.0 0.0 -0.7641442 0.0 -0.7641442 -0.41146228 0.0 0.0 -1.0580459 -0.70536387
0000a0 00 f0 00 00 f5 00 00 00 5d f2 00 00 00 00 00 00
       0.0 -0.9404852 0.0 0.0 -0.64658356 0.0 0.0 0.0 5.46657 -0.82292455 0.0 0.0 0.0 0.0 0.0 0.0
0000b0 07 00 00 00 00 00 e9 ee 00 00 00 00 ec f5 00 00
       0.41146228 0.0 0.0 0.0 0.0 0.0 -1.3519474 -1.0580459 0.0 0.0 0.0 0.0 -1.1756065 -0.64658356 0.0 0.0
0000c0 00 00 00 f0 e7 00 fb 0f 00 f0 00 00 00 00 00 fa
       0.0 0.0 0.0 -0.9404852 -1.469508 0.0 -0.29390162 0.88170487 0.0 -0.9404852 0.0 0.0 0.0 0.0 0.0 -0.35268193
0000d0 e5 00 00 00 00 00 00 00 00 00 00 00 e4 00 00 dc
       -1.5870688 0.0 0.0 0.0 0.0 0.0 0.0 0.0 0.0 0.0 0.0 0.0 -1.6458491 0.0 0.0 -2.1160917
0000e0 0d 00 00 00 00 00 00 00 00 f8 f5 f5 00 00 00 00
       0.7641442 0.0 0.0 0.0 0.0 0.0 0.0 0.0 0.0 -0.4702426 -0.64658356 -0.64658356 0.0 0.0 0.0 0.0
0000f0 00 00 00 00 05 00 00 00 0a 0d 00 00 00 00 17 d2
       0.0 0.0 0.0 0.0 0.29390162 0.0 0.0 0.0 0.58780324 0.7641442 0.0 0.0 0.0 0.0 1.3519474 -2.7038949

sequential_3/dense_8/MatMul i1 [256, 128] scale=0.003631826 zero_point=0
000000 00 00 00 00 00 00 00 00 00 00 00 00 11 00 00 32
       0.0 0.0 0.0 0.0 0.0 0.0 0.0 0.0 0.0 0.0 0.0 0.0 0.061741043 0.0 0.0 0.1815913
000010 00 00 32 00 00 00 00 00 00 33 1d 00 00 e7 00 00
       0.0 0.0 0.1815913 0.0 0.0 0.0 0.0 0.0 0.0 0.18522313 0.10532296 0.0 0.0 -0.09079565 0.0 0.0
000020 00 de cb 00 d8 2f 00 00 00 00 00 00 00 00 00 00
       0.0 -0.123482086 -0.19248678 0.0 -0.14527304 0.17069583 0.0 0.0 0.0 0.0 0.0 0.0 0.0 0.0 0.0 0.0
000030 00 00 00 15 00 00 28 00 00 00 d5 00 00 00 00 23
       0.0 0.0 0.0 0.076268345 0.0 0.0 0.14527304 0.0 0.0 0.0 -0.15616852 0.0 0.0 0.0 0.0 0.12711391
000040 00 00 00 00 00 00 00 00 00 00 00 00 2e 00 00 cc
       0.0 0.0 0.0 0.0 0.0 0.0 0.0 0.0 0.0 0.0 0.0 0.0 0.167064 0.0 0.0 -0.18885495
000050 00 00 00 00 00 25 00 00 30 d9 00 1a f2 12 00 00
       0.0 0.0 0.0 0.0 0.0 0.13437757 0.0 0.0 0.17432764 -0.14164121 0.0 0.094427474 -0.050845563 0.06537287 0.0 0.0
000060 00 00 00 00 1f 00 e8 00 00 00 00 00 00 00 00 00
       0.0 0.0 0.0 0.0 0.11258661 0.0 -0.08716382 0.0 0.0 0.0 0.0 0.0 0.0 0.0 0.0 0.0
000070 00 00 00 00 00 00 00 00 00 e7 f7 00 00 00 00 dd
       0.0 0.0 0.0 0.0 0.0 0.0 0.0 0.0 0.0 -0.09079565 -0.032686435 0.0 0.0 0.0 0.0 -0.12711391
000080 00 00 00 00 00 00 00 00 00 00 d6 00 00 00 00 ba
       0.0 0.0 0.0 0.0 0.0 0.0 0.0 0.0 0.0 0.0 -0.15253669 0.0 0.0 0.0 0.0 -0.25422782
000090 ad 00 00 00 18 1b 00 00 00 00 00 00 00 00 00 22
       -0.30144155 0.0 0.0 0.0 0.08716382 0.098059304 0.0 0.0 0.0 0.0 0.0 0.0 0.0 0.0 0.0 0.123482086
0000a0 00 00 00 00 1c 00 00 00 00 22 ee f0 00 eb 00 00
       0.0 0.0 0.0 0.0 0.10169113 0.0 0.0 0.0 0.0 0.123482086 -0.06537287 -0.058109216 0.0 -0.076268345 0.0 0.0
0000b0 00 cd 00 da 00 00 00 00 00 be 12 00 00 ec 11 00
       0.0 -0.18522313 0.0 -0.13800938 0.0 0.0 0.0 0.0 0.0 -0.23970051 0.06537287 0.0 0.0 -0.07263652 0.061741043 0.0
0000c0 00 00 00 14 00 00 28 00 00 e7 da 00 00 00 00 00
       0.0 0.0 0.0 0.07263652 0.0 0.0 0.14527304 0.0 0.0 -0.09079565 -0.13800938 0.0 0.0 0.0 0.0 0.0
0000d0 00 00 00 00 00 00 00 00 e9 00 1b 00 00 36 00 00
       0.0 0.0 0.0 0.0 0.0 0.0 0.0 0.0 -0.083532 0.0 0.098059304 0.0 0.0 0.19611861 0.0 0.0
0000e0 00 1c 00 00 00 12 21 00 e4 c7 00 00 1b 00 00 00
       0.0 0.10169113 0.0 0.0 0.0 0.06537287 0.119850256 0.0 -0.10169113 -0.20701408 0.0 0.0 0.098059304 0.0 0.0 0.0
0000f0 00 00 00 00 00 00 00 00 31 00 00 00 00 c7 00 00
       0.0 0.0 0.0 0.0 0.0 0.0 0.0 0.0 0.17795947 0.0 0.0 0.0 0.0 -0.20701408 0.0 0.0

sequential_3/batch_normalization_11/FusedBatchNormV31 i1 [128] scale=0.0033831992 zero_point=127
000000 3d 69 12 3d 12 31 30 26 c5 1e 94 1b 39 38 14 44
       -0.22329114 -0.074430384 -0.36876872 -0.22329114 -0.36876872 -0.26388955 -0.26727274 -0.30110472 -0.6292751 -0.32817033 -0.7950518 -0.33831993 -0.23682395 -0.24020715 -0.3620023 -0.19960876
000010 4b 1d 3b 4e 29 41 1e 3d 20 ee de cd 51 e7 12 29
       -0.17592636 -0.33155352 -0.23005755 -0.16577676 -0.29095513 -0.20975836 -0.32817033 -0.22329114 -0.32140392 -0.4905639 -0.5446951 -0.60220945 -0.15562716 -0.5142463 -0.36876872 -0.29095513
000020 30 1c 2e 34 f2 6c d6 fc 1d 25 24 47 3e 47 07 22
       -0.26727274 -0.3349367 -0.27403915 -0.25373995 -0.47703108 -0.064280786 -0.57176065 -0.4431991 -0.33155352 -0.30448794 -0.30787113 -0.18945916 -0.21990795 -0.18945916 -0.4059839 -0.31463754
000030 48 2d 35 41 2f 2d 15 06 d3 37 38 f9 e8 36 1d 18
       -0.18607596 -0.27742234 -0.25035673 -0.20975836 -0.27065593 -0.27742234 -0.35861912 -0.4093671 -0.58191025 -0.24359034 -0.24020715 -0.4533487 -0.51086307 -0.24697354 -0.33155352 -0.34846953
000040 35 28 0b fc 27 41 eb cb 32 fd 3f 2b 59 ed 57 16
       -0.25035673 -0.29433835 -0.3924511 -0.4431991 -0.29772153 -0.20975836 -0.50071347 -0.6089759 -0.26050633 -0.4398159 -0.21652475 -0.28418875 -0.12856157 -0.4939471 -0.13532797 -0.3552359
000050 22 53 5b 49 31 e3 21 96 4f 28 c6 0f 0b 41 0e 08
       -0.31463754 -0.14886077 -0.12179517 -0.18269275 -0.26388955 -0.5277791 -0.31802073 -0.78828543 -0.16239357 -0.29433835 -0.62589186 -0.37891832 -0.3924511 -0.20975836 -0.3823015 -0.4026007
000060 25 45 5c 28 20 06 2b 1e 15 23 1b f1 5e 2e 50 57
       -0.30448794 -0.19622555 -0.11841197 -0.29433835 -0.32140392 -0.4093671 -0.28418875 -0.32817033 -0.35861912 -0.31125432 -0.33831993 -0.4804143 -0.11164557 -0.27403915 -0.15901037 -0.13532797
000070 da da ea a7 14 d2 d9 e5 03 36 40 5a e4 80 fe 8c
       -0.5582279 -0.5582279 -0.5040967 -0.730771 -0.3620023 -0.5852935 -0.56161106 -0.52101266 -0.4195167 -0.24697354 -0.21314155 -0.12517837 -0.5243959 -0.8627158 -0.4364327 -0.8221174

sequential_3/batch_normalization_11/FusedBatchNormV3 i1 [128] scale=0.024658956 zero_point=-128
000000 39 31 db e6 ca 5a cc bf 9b d9 95 b4 f9 c4 ae 1a
       4.561907 4.364635 2.243965 2.5152135 1.8247627 5.3756523 1.8740807 1.5535142 0.6657918 2.194647 0.51783806 1.2822657 2.9837337 1.676809 1.1343119 3.7974792
000010 10 d5 1e 2f cf f4 d4 eb c0 ab a3 a8 7f a7 d0 c2
       3.5508895 2.0960112 3.896115 4.315317 1.9480575 2.8604388 2.0713522 2.6385083 1.5781732 1.060335 0.86306345 0.9863582 6.2880335 0.96169925 1.9727165 1.6274911
000020 ce cf 07 d8 ab 57 ad b2 bd ad c4 cf 1e 17 a4 e4
       1.9233985 1.9480575 3.328959 2.1699882 1.060335 5.3016753 1.109653 1.2329478 1.5041963 1.109653 1.676809 1.9480575 3.896115 3.7235024 0.8877224 2.4658957
000030 17 13 fe 08 c4 d0 a4 ba a7 e2 fc b1 ab fe bd b9
       3.7235024 3.6248665 3.1070285 3.353618 1.676809 1.9727165 0.8877224 1.4302194 0.96169925 2.4165776 3.0577104 1.2082888 1.060335 3.1070285 1.5041963 1.4055605
000040 ce e0 a9 aa eb fa a9 a2 e0 a4 ce c4 5a b3 0e bb
       1.9233985 2.3672597 1.0110172 1.0356761 2.6385083 3.0083926 1.0110172 0.8384045 2.3672597 0.8877224 1.9233985 1.676809 5.3756523 1.2576067 3.5015717 1.4548783
000050 c6 29 3a 16 ea a1 c6 a2 19 bc 9e af a2 38 d9 c0
       1.7261269 4.1673636 4.586566 3.6988432 2.6138494 0.81374556 1.7261269 0.8384045 3.7728202 1.4795374 0.7397687 1.158971 0.8384045 4.5372477 2.194647 1.5781732
000060 c2 38 45 c8 db ba d4 f4 cf cd c9 ac 35 af 01 24
       1.6274911 4.5372477 4.8578143 1.7754447 2.243965 1.4302194 2.0713522 2.8604388 1.9480575 1.8987396 1.8001038 1.0849941 4.463271 1.158971 3.1810052 4.044069
000070 96 a2 9f 9b b9 9c a1 ae b2 19 14 e8 a4 93 b4 9f
       0.54249704 0.8384045 0.7644276 0.6657918 1.4055605 0.6904508 0.81374556 1.1343119 1.2329478 3.7728202 3.6495254 2.5645313 0.8877224 0.46852016 1.2822657 0.7644276

sequential_3/conv2d_6/Conv2D i1 [128, 3, 3, 64]
000000 00 1b 00 ec 00 31 2c f2 14 00 00 00 f9 00 c2 00
       0 27 0 -20 0 49 44 -14 20 0 0 0 -7 0 -62 0
000010 2b 00 d3 00 81 dc 00 00 d1 00 00 00 00 14 00 00
       43 0 -45 0 -127 -36 0 0 -47 0 0 0 0 20 0 0
000020 00 d8 00 00 23 a5 00 00 00 00 00 00 00 ed 00 00
       0 -40 0 0 35 -91 0 0 0 0 0 0 0 -19 0 0
000030 00 00 00 cf 00 da 00 00 00 00 00 00 00 00 d7 00
       0 0 0 -49 0 -38 0 0 0 0 0 0 0 0 -41 0
000040 00 0c e1 db 00 00 00 00 00 d4 0c bf 00 00 db 00
       0 12 -31 -37 0 0 0 0 0 -44 12 -65 0 0 -37 0
000050 00 00 d3 00 c8 00 00 00 00 00 00 00 00 00 00 00
       0 0 -45 0 -56 0 0 0 0 0 0 0 0 0 0 0
000060 00 d8 00 00 00 00 00 00 0d 00 00 00 00 00 00 bc
       0 -40 0 0 0 0 0 0 13 0 0 0 0 0 0 -68
000070 e5 00 00 c7 e5 00 00 f3 00 eb 00 27 00 00 00 00
       -27 0 0 -57 -27 0 0 -13 0 -21 0 39 0 0 0 0
000080 00 00 00 00 00 00 00 00 00 c4 00 d6 00 00 d4 00
       0 0 0 0 0 0 0 0 0 -60 0 -42 0 0 -44 0
000090 00 00 00 00 ba 00 00 00 00 d9 e9 00 00 38 00 00
       0 0 0 0 -70 0 0 0 0 -39 -23 0 0 56 0 0
0000a0 00 00 00 c8 00 c8 00 00 00 00 00 00 00 00 00 00
       0 0 0 -56 0 -56 0 0 0 0 0 0 0 0 0 0
0000b0 00 00 00 ca 00 24 00 00 00 d9 22 00 00 00 00 00
       0 0 0 -54 0 36 0 0 0 -39 34 0 0 0 0 0
0000c0 00 24 00 00 00 00 00 00 00 00 00 dd d6 00 00 00
       0 36 0 0 0 0 0 0 0 0 0 -35 -42 0 0 0
0000d0 00 17 c8 00 ae 00 00 d5 00 cd dd 00 00 00 e4 00
       0 23 -56 0 -82 0 0 -43 0 -51 -35 0 0 0 -28 0
0000e0 00 00 00 e2 00 a6 00 00 00 d9 00 00 00 00 00 00
       0 0 0 -30 0 -90 0 0 0 -39 0 0 0 0 0 0
0000f0 00 00 00 c9 00 00 00 e3 00 d9 0b 00 00 00 00 00
       0 0 0 -55 0 0 0 -29 0 -39 11 0 0 0 0 0

sequential_3/batch_normalization_10/FusedBatchNormV31 i1 [64] scale=0.0034701028 zero_point=127
000000 6b 2a 49 0b 18 13 54 ef 14 2b d4 11 20 53 61 43
       -0.069402054 -0.29495874 -0.18738554 -0.40253192 -0.3574206 -0.3747711 -0.14921442 -0.4996948 -0.371301 -0.29148865 -0.5933876 -0.3817113 -0.32965976 -0.15268452 -0.10410308 -0.20820616
000010 2d 41 f5 2d 57 1d 0b 2f 22 58 e6 43 3a 2f 5f a3
       -0.28454843 -0.21514638 -0.47887418 -0.28454843 -0.13880411 -0.34007007 -0.40253192 -0.27760822 -0.32271957 -0.13533401 -0.53092575 -0.20820616 -0.23943709 -0.27760822 -0.11104329 -0.7634226
000020 26 45 31 f5 ed 5d 6d 22 24 1b 46 12 24 76 ea 21
       -0.30883914 -0.20126596 -0.27066803 -0.47887418 -0.506635 -0.1179835 -0.06246185 -0.32271957 -0.31577936 -0.34701028 -0.19779585 -0.3782412 -0.31577936 -0.031230925 -0.5170453 -0.32618967
000030 33 53 d8 59 67 44 80 53 dc 2d 45 26 38 51 4c 78
       -0.2637278 -0.15268452 -0.5795072 -0.1318639 -0.08328247 -0.20473607 -0.8848762 -0.15268452 -0.56562674 -0.28454843 -0.20126596 -0.30883914 -0.2463773 -0.15962473 -0.17697524 -0.02429072

sequential_3/batch_normalization_10/FusedBatchNormV3 i1 [64] scale=0.041909553 zero_point=-128
000000 d6 09 34 e1 42 e8 4a 7f df e6 14 53 53 5a 34 61
       3.6042216 5.7416086 7.54372 4.0652266 8.130453 4.3585935 8.46573 10.686936 3.9814076 4.2747746 6.202614 8.842916 8.842916 9.136283 7.54372 9.429649
000010 4f ba dc 18 05 eb f4 e2 d9 e2 e4 e8 75 21 26 d8
       8.675278 2.4307542 3.8556788 6.370252 5.573971 4.484322 4.8615084 4.1071362 3.7299502 4.1071362 4.190955 4.3585935 10.26784 6.747438 6.956986 3.6880407
000020 29 ec 0e f1 f9 dc e1 73 5c 02 ee 4b ca f1 04 b3
       7.0827146 4.526232 5.9511566 4.7357793 5.071056 3.8556788 4.0652266 10.184021 9.220101 5.4482417 4.6100507 8.507639 3.101307 4.7357793 5.532061 2.1373873
000030 ea c8 d4 1b 06 e2 db 45 dc ca 1e dc 03 2d f4 52
       4.442413 3.0174878 3.5204024 6.4959807 5.61588 4.1071362 3.8137693 8.256182 3.8556788 3.101307 6.6217093 3.8556788 5.4901514 7.250353 4.8615084 8.801006

sequential_3/conv2d_5/Conv2D i1 [64, 3, 3, 32]
000000 00 3e 37 3b 00 00 00 00 00 00 00 ea 00 2f b6 00
       0 62 55 59 0 0 0 0 0 0 0 -22 0 47 -74 0
000010 00 00 21 e2 00 00 ed cf 00 00 00 b3 00 00 41 00
       0 0 33 -30 0 0 -19 -49 0 0 0 -77 0 0 65 0
000020 dc 00 d7 00 00 29 00 00 00 00 44 dd 00 50 00 ce
       -36 0 -41 0 0 41 0 0 0 0 68 -35 0 80 0 -50
000030 00 00 00 00 00 3b e9 ae be da 00 e0 00 de 00 00
       0 0 0 0 0 59 -23 -82 -66 -38 0 -32 0 -34 0 0
000040 d8 00 00 00 36 2a 25 00 00 00 00 00 00 58 41 00
       -40 0 0 0 54 42 37 0 0 0 0 0 0 88 65 0
000050 00 00 cf 00 d5 00 00 00 00 00 2a 45 00 00 56 c2
       0 0 -49 0 -43 0 0 0 0 0 42 69 0 0 86 -62
000060 00 00 32 00 00 00 33 e2 3a 00 00 00 00 00 d6 00
       0 0 50 0 0 0 51 -30 58 0 0 0 0 0 -42 0
000070 b3 00 00 00 00 00 00 c5 a7 00 00 e1 00 00 2e 00
       -77 0 0 0 0 0 0 -59 -89 0 0 -31 0 0 46 0
000080 b8 00 00 20 00 00 00 00 1d 00 fc 00 00 00 c4 00
       -72 0 0 32 0 0 0 0 29 0 -4 0 0 0 -60 0
000090 00 00 cc 1a 00 00 00 b5 b4 00 13 00 26 00 00 00
       0 0 -52 26 0 0 0 -75 -76 0 19 0 38 0 0 0
0000a0 00 50 00 00 25 3d 27 00 00 c4 44 00 00 00 d3 00
       0 80 0 0 37 61 39 0 0 -60 68 0 0 0 -45 0
0000b0 00 ef d1 00 e3 c8 35 ae 00 3b 00 00 00 00 00 00
       0 -17 -47 0 -29 -56 53 -82 0 59 0 0 0 0 0 0
0000c0 b4 00 00 00 e7 00 dc 00 00 00 f9 16 00 00 81 00
       -76 0 0 0 -25 0 -36 0 0 0 -7 22 0 0 -127 0
0000d0 ca 00 00 00 00 00 00 00 00 35 00 00 3b 00 00 c6
       -54 0 0 0 0 0 0 0 0 53 0 0 59 0 0 -58
0000e0 00 00 25 24 2f 00 29 00 c4 00 00 00 d0 50 d4 00
       0 0 37 36 47 0 41 0 -60 0 0 0 -48 80 -44 0
0000f0 00 00 cc 00 00 00 00 c3 00 e2 00 00 00 00 28 d7
       0 0 -52 0 0 0 0 -61 0 -30 0 0 0 0 40 -41

sequential_3/batch_normalization_9/FusedBatchNormV31 i1 [32] scale=0.0060316157 zero_point=116
000000 79 6c 33 72 80 6f 5c 39 71 32 74 6b 7c 6a 53 74
       0.030158078 -0.048252925 -0.392055 -0.012063231 -1.4717143 -0.030158078 -0.14475878 -0.35586533 -0.018094847 -0.39808664 0.0 -0.054284543 0.048252925 -0.060316157 -0.19904332 0.0
000010 4f 73 7f ea 79 24 77 7e 7b 73 2e 71 71 70 6e 7a
       -0.22316977 -0.0060316157 0.06634777 -0.83236295 0.030158078 -0.48252925 0.018094847 0.060316157 0.042221308 -0.0060316157 -0.4222131 -0.018094847 -0.018094847 -0.024126463 -0.036189694 0.036189694

sequential_3/batch_normalization_9/FusedBatchNormV3 i1 [32] scale=0.14195953 zero_point=-128
000000 62 59 6c 70 6a 71 6e 58 5e 5a 52 62 5d 5c 7f 3b
       32.082855 30.805218 33.50245 34.07029 33.218533 34.212246 33.78637 30.66326 31.515017 30.947178 29.811502 32.082855 31.373056 31.231098 36.19968 26.546432
000010 6f 58 49 4e 66 52 55 5f 5f 5d 3d 54 52 44 5c 5d
       33.92833 30.66326 28.533867 29.243664 32.650692 29.811502 30.237381 31.656977 31.656977 31.373056 26.83035 30.09542 29.811502 27.824068 31.231098 31.373056

sequential_3/conv2d_4/Conv2D i1 [32, 3, 3, 1]
000000 00 00 00 00 00 00 81 00 4d 81 00 00 4f 00 00 00
       0 0 0 0 0 0 -127 0 77 -127 0 0 79 0 0 0
000010 a7 a9 00 c8 ba 00 00 00 00 00 7f 00 00 00 00 81
       -89 -87 0 -56 -70 0 0 0 0 0 127 0 0 0 0 -127
000020 00 00 52 00 00 75 9d bd 00 00 00 7f a4 00 00 81
       0 0 82 0 0 117 -99 -67 0 0 0 127 -92 0 0 -127
000030 00 00 00 00 62 00 c3 b2 af 5a 7f 00 00 00 00 82
       0 0 0 0 98 0 -61 -78 -81 90 127 0 0 0 0 -126
000040 00 00 00 00 7f 00 00 00 65 00 00 00 00 00 00 81
       0 0 0 0 127 0 0 0 101 0 0 0 0 0 0 -127
000050 00 81 4c 00 00 00 00 00 bb 72 00 00 00 00 00 00
       0 -127 76 0 0 0 0 0 -69 114 0 0 0 0 0 0
000060 81 00 00 00 00 76 81 00 00 00 00 00 00 00 00 96
       -127 0 0 0 0 118 -127 0 0 0 0 0 0 0 0 -106
000070 00 81 00 00 82 00 00 00 00 00 00 81 00 00 00 00
       0 -127 0 0 -126 0 0 0 0 0 0 -127 0 0 0 0
000080 7e 00 00 00 00 81 00 00 00 00 00 00 00 00 00 00
       126 0 0 0 0 -127 0 0 0 0 0 0 0 0 0 0
000090 7e 00 00 00 00 00 00 81 00 00 00 00 00 9e 00 00
       126 0 0 0 0 0 0 -127 0 0 0 0 0 -98 0 0
0000a0 81 51 00 a3 00 7f 00 00 9d 00 00 00 00 00 00 00
       -127 81 0 -93 0 127 0 0 -99 0 0 0 0 0 0 0
0000b0 00 00 00 00 00 00 85 81 65 00 00 00 5d 00 00 79
       0 0 0 0 0 0 -123 -127 101 0 0 0 93 0 0 121
0000c0 81 5b a7 00 00 00 00 00 00 00 00 00 6b 81 00 95
       -127 91 -89 0 0 0 0 0 0 0 0 0 107 -127 0 -107
0000d0 ad 00 a0 00 57 00 00 81 a9 75 00 82 81 00 00 00
       -83 0 -96 0 87 0 0 -127 -87 117 0 -126 -127 0 0 0
0000e0 00 00 00 00 00 00 81 00 00 00 00 00 00 7f 7e 86
       0 0 0 0 0 0 -127 0 0 0 0 0 0 127 126 -122
0000f0 00 98 00 00 5a 00 00 00 bc 81 00 00 81 00 00 00
       0 -104 0 0 90 0 0 0 -68 -127 0 0 -127 0 0 0
